<?xml version="1.0"?>
<net name="torch_jit" version="11">
	<layers>
		<layer id="1" name="input_0" type="Parameter" version="opset1">
			<data shape="8" element_type="f32" />
			<output>
				<port id="0" precision="FP32" names="input_0">
					<dim>8</dim>
				</port>
			</output>
		</layer>
		<layer id="0" name="input_1" type="Parameter" version="opset1">
			<data shape="8,1,1352,2040" element_type="f32" />
			<output>
				<port id="0" precision="FP32" names="input_1">
					<dim>8</dim>
					<dim>1</dim>
					<dim>1352</dim>
					<dim>2040</dim>
				</port>
			</output>
		</layer>
		<layer id="2" name="Constant_5798" type="Const" version="opset1">
			<data element_type="f32" shape="1, 1, 1, 1" offset="0" size="4" />
			<output>
				<port id="0" precision="FP32">
					<dim>1</dim>
					<dim>1</dim>
					<dim>1</dim>
					<dim>1</dim>
				</port>
			</output>
		</layer>
		<layer id="3" name="Constant_5799" type="Const" version="opset1">
			<data element_type="f32" shape="1, 1, 1, 1" offset="4" size="4" />
			<output>
				<port id="0" precision="FP32">
					<dim>1</dim>
					<dim>1</dim>
					<dim>1</dim>
					<dim>1</dim>
				</port>
			</output>
		</layer>
		<layer id="4" name="Constant_5800" type="Const" version="opset1">
			<data element_type="f32" shape="1, 1, 1, 1" offset="0" size="4" />
			<output>
				<port id="0" precision="FP32">
					<dim>1</dim>
					<dim>1</dim>
					<dim>1</dim>
					<dim>1</dim>
				</port>
			</output>
		</layer>
		<layer id="5" name="Constant_5801" type="Const" version="opset1">
			<data element_type="f32" shape="1, 1, 1, 1" offset="4" size="4" />
			<output>
				<port id="0" precision="FP32">
					<dim>1</dim>
					<dim>1</dim>
					<dim>1</dim>
					<dim>1</dim>
				</port>
			</output>
		</layer>
		<layer id="6" name="//nncf_model_input_1|OUTPUT/FakeQuantize" type="FakeQuantize" version="opset1">
			<data levels="256" auto_broadcast="numpy" />
			<input>
				<port id="0" precision="FP32">
					<dim>8</dim>
					<dim>1</dim>
					<dim>1352</dim>
					<dim>2040</dim>
				</port>
				<port id="1" precision="FP32">
					<dim>1</dim>
					<dim>1</dim>
					<dim>1</dim>
					<dim>1</dim>
				</port>
				<port id="2" precision="FP32">
					<dim>1</dim>
					<dim>1</dim>
					<dim>1</dim>
					<dim>1</dim>
				</port>
				<port id="3" precision="FP32">
					<dim>1</dim>
					<dim>1</dim>
					<dim>1</dim>
					<dim>1</dim>
				</port>
				<port id="4" precision="FP32">
					<dim>1</dim>
					<dim>1</dim>
					<dim>1</dim>
					<dim>1</dim>
				</port>
			</input>
			<output>
				<port id="5" precision="FP32" names="//nncf_model_input_1|OUTPUT/FakeQuantize_output_0">
					<dim>8</dim>
					<dim>1</dim>
					<dim>1352</dim>
					<dim>2040</dim>
				</port>
			</output>
		</layer>
		<layer id="7" name="in_conv.0.weight" type="Const" version="opset1">
			<data element_type="i8" shape="48, 1, 3, 3" offset="8" size="432" />
			<output>
				<port id="0" precision="I8">
					<dim>48</dim>
					<dim>1</dim>
					<dim>3</dim>
					<dim>3</dim>
				</port>
			</output>
		</layer>
		<layer id="8" name="Convert_6172" type="Convert" version="opset1">
			<data destination_type="f32" />
			<input>
				<port id="0" precision="I8">
					<dim>48</dim>
					<dim>1</dim>
					<dim>3</dim>
					<dim>3</dim>
				</port>
			</input>
			<output>
				<port id="1" precision="FP32">
					<dim>48</dim>
					<dim>1</dim>
					<dim>3</dim>
					<dim>3</dim>
				</port>
			</output>
		</layer>
		<layer id="9" name="Constant_6109" type="Const" version="opset1">
			<data element_type="f32" shape="48, 1, 1, 1" offset="440" size="192" />
			<output>
				<port id="0" precision="FP32">
					<dim>48</dim>
					<dim>1</dim>
					<dim>1</dim>
					<dim>1</dim>
				</port>
			</output>
		</layer>
		<layer id="10" name="/in_conv/in_conv.0/pre_ops.0/op/FakeQuantize" type="Multiply" version="opset1">
			<data auto_broadcast="numpy" />
			<input>
				<port id="0" precision="FP32">
					<dim>48</dim>
					<dim>1</dim>
					<dim>3</dim>
					<dim>3</dim>
				</port>
				<port id="1" precision="FP32">
					<dim>48</dim>
					<dim>1</dim>
					<dim>1</dim>
					<dim>1</dim>
				</port>
			</input>
			<output>
				<port id="2" precision="FP32" names="/in_conv/in_conv.0/pre_ops.0/op/FakeQuantize_output_0">
					<dim>48</dim>
					<dim>1</dim>
					<dim>3</dim>
					<dim>3</dim>
				</port>
			</output>
		</layer>
		<layer id="11" name="/in_conv/in_conv.0/Conv/WithoutBiases" type="Convolution" version="opset1">
			<data strides="1, 1" dilations="1, 1" pads_begin="1, 1" pads_end="1, 1" auto_pad="explicit" />
			<input>
				<port id="0" precision="FP32">
					<dim>8</dim>
					<dim>1</dim>
					<dim>1352</dim>
					<dim>2040</dim>
				</port>
				<port id="1" precision="FP32">
					<dim>48</dim>
					<dim>1</dim>
					<dim>3</dim>
					<dim>3</dim>
				</port>
			</input>
			<output>
				<port id="2" precision="FP32">
					<dim>8</dim>
					<dim>48</dim>
					<dim>1352</dim>
					<dim>2040</dim>
				</port>
			</output>
		</layer>
		<layer id="12" name="Reshape_102" type="Const" version="opset1">
			<data element_type="f32" shape="1, 48, 1, 1" offset="632" size="192" />
			<output>
				<port id="0" precision="FP32">
					<dim>1</dim>
					<dim>48</dim>
					<dim>1</dim>
					<dim>1</dim>
				</port>
			</output>
		</layer>
		<layer id="13" name="/in_conv/in_conv.0/Conv" type="Add" version="opset1">
			<data auto_broadcast="numpy" />
			<input>
				<port id="0" precision="FP32">
					<dim>8</dim>
					<dim>48</dim>
					<dim>1352</dim>
					<dim>2040</dim>
				</port>
				<port id="1" precision="FP32">
					<dim>1</dim>
					<dim>48</dim>
					<dim>1</dim>
					<dim>1</dim>
				</port>
			</input>
			<output>
				<port id="2" precision="FP32" names="/in_conv/in_conv.0/Conv_output_0">
					<dim>8</dim>
					<dim>48</dim>
					<dim>1352</dim>
					<dim>2040</dim>
				</port>
			</output>
		</layer>
		<layer id="14" name="Constant_130" type="Const" version="opset1">
			<data element_type="f32" shape="1" offset="824" size="4" />
			<output>
				<port id="0" precision="FP32">
					<dim>1</dim>
				</port>
			</output>
		</layer>
		<layer id="15" name="/in_conv/in_conv.1/LeakyRelu" type="PReLU" version="opset1">
			<input>
				<port id="0" precision="FP32">
					<dim>8</dim>
					<dim>48</dim>
					<dim>1352</dim>
					<dim>2040</dim>
				</port>
				<port id="1" precision="FP32">
					<dim>1</dim>
				</port>
			</input>
			<output>
				<port id="2" precision="FP32" names="/in_conv/in_conv.1/LeakyRelu_output_0">
					<dim>8</dim>
					<dim>48</dim>
					<dim>1352</dim>
					<dim>2040</dim>
				</port>
			</output>
		</layer>
		<layer id="16" name="Constant_5802" type="Const" version="opset1">
			<data element_type="f32" shape="1, 1, 1, 1" offset="828" size="4" />
			<output>
				<port id="0" precision="FP32">
					<dim>1</dim>
					<dim>1</dim>
					<dim>1</dim>
					<dim>1</dim>
				</port>
			</output>
		</layer>
		<layer id="17" name="Constant_5803" type="Const" version="opset1">
			<data element_type="f32" shape="1, 1, 1, 1" offset="832" size="4" />
			<output>
				<port id="0" precision="FP32">
					<dim>1</dim>
					<dim>1</dim>
					<dim>1</dim>
					<dim>1</dim>
				</port>
			</output>
		</layer>
		<layer id="18" name="Constant_5804" type="Const" version="opset1">
			<data element_type="f32" shape="1, 1, 1, 1" offset="828" size="4" />
			<output>
				<port id="0" precision="FP32">
					<dim>1</dim>
					<dim>1</dim>
					<dim>1</dim>
					<dim>1</dim>
				</port>
			</output>
		</layer>
		<layer id="19" name="Constant_5805" type="Const" version="opset1">
			<data element_type="f32" shape="1, 1, 1, 1" offset="832" size="4" />
			<output>
				<port id="0" precision="FP32">
					<dim>1</dim>
					<dim>1</dim>
					<dim>1</dim>
					<dim>1</dim>
				</port>
			</output>
		</layer>
		<layer id="20" name="/in_conv/in_conv.1/Generator/Sequential[in_conv]/LeakyReLU[1]/leaky_relu_0|OUTPUT/FakeQuantize" type="FakeQuantize" version="opset1">
			<data levels="256" auto_broadcast="numpy" />
			<input>
				<port id="0" precision="FP32">
					<dim>8</dim>
					<dim>48</dim>
					<dim>1352</dim>
					<dim>2040</dim>
				</port>
				<port id="1" precision="FP32">
					<dim>1</dim>
					<dim>1</dim>
					<dim>1</dim>
					<dim>1</dim>
				</port>
				<port id="2" precision="FP32">
					<dim>1</dim>
					<dim>1</dim>
					<dim>1</dim>
					<dim>1</dim>
				</port>
				<port id="3" precision="FP32">
					<dim>1</dim>
					<dim>1</dim>
					<dim>1</dim>
					<dim>1</dim>
				</port>
				<port id="4" precision="FP32">
					<dim>1</dim>
					<dim>1</dim>
					<dim>1</dim>
					<dim>1</dim>
				</port>
			</input>
			<output>
				<port id="5" precision="FP32" names="/in_conv/in_conv.1/Generator/Sequential[in_conv]/LeakyReLU[1]/leaky_relu_0|OUTPUT/FakeQuantize_output_0">
					<dim>8</dim>
					<dim>48</dim>
					<dim>1352</dim>
					<dim>2040</dim>
				</port>
			</output>
		</layer>
		<layer id="21" name="rlfb_qpa.RLFB1.0.c1_r.weight" type="Const" version="opset1">
			<data element_type="i8" shape="48, 48, 3, 3" offset="836" size="20736" />
			<output>
				<port id="0" precision="I8">
					<dim>48</dim>
					<dim>48</dim>
					<dim>3</dim>
					<dim>3</dim>
				</port>
			</output>
		</layer>
		<layer id="22" name="Convert_6293" type="Convert" version="opset1">
			<data destination_type="f32" />
			<input>
				<port id="0" precision="I8">
					<dim>48</dim>
					<dim>48</dim>
					<dim>3</dim>
					<dim>3</dim>
				</port>
			</input>
			<output>
				<port id="1" precision="FP32">
					<dim>48</dim>
					<dim>48</dim>
					<dim>3</dim>
					<dim>3</dim>
				</port>
			</output>
		</layer>
		<layer id="23" name="Constant_6230" type="Const" version="opset1">
			<data element_type="f32" shape="48, 1, 1, 1" offset="21572" size="192" />
			<output>
				<port id="0" precision="FP32">
					<dim>48</dim>
					<dim>1</dim>
					<dim>1</dim>
					<dim>1</dim>
				</port>
			</output>
		</layer>
		<layer id="24" name="/rlfb_qpa/RLFB1/RLFB1.0/c1_r/pre_ops.0/op/FakeQuantize" type="Multiply" version="opset1">
			<data auto_broadcast="numpy" />
			<input>
				<port id="0" precision="FP32">
					<dim>48</dim>
					<dim>48</dim>
					<dim>3</dim>
					<dim>3</dim>
				</port>
				<port id="1" precision="FP32">
					<dim>48</dim>
					<dim>1</dim>
					<dim>1</dim>
					<dim>1</dim>
				</port>
			</input>
			<output>
				<port id="2" precision="FP32" names="/rlfb_qpa/RLFB1/RLFB1.0/c1_r/pre_ops.0/op/FakeQuantize_output_0">
					<dim>48</dim>
					<dim>48</dim>
					<dim>3</dim>
					<dim>3</dim>
				</port>
			</output>
		</layer>
		<layer id="25" name="/rlfb_qpa/RLFB1/RLFB1.0/c1_r/Conv/WithoutBiases" type="Convolution" version="opset1">
			<data strides="1, 1" dilations="1, 1" pads_begin="1, 1" pads_end="1, 1" auto_pad="explicit" />
			<input>
				<port id="0" precision="FP32">
					<dim>8</dim>
					<dim>48</dim>
					<dim>1352</dim>
					<dim>2040</dim>
				</port>
				<port id="1" precision="FP32">
					<dim>48</dim>
					<dim>48</dim>
					<dim>3</dim>
					<dim>3</dim>
				</port>
			</input>
			<output>
				<port id="2" precision="FP32">
					<dim>8</dim>
					<dim>48</dim>
					<dim>1352</dim>
					<dim>2040</dim>
				</port>
			</output>
		</layer>
		<layer id="26" name="Reshape_182" type="Const" version="opset1">
			<data element_type="f32" shape="1, 48, 1, 1" offset="21764" size="192" />
			<output>
				<port id="0" precision="FP32">
					<dim>1</dim>
					<dim>48</dim>
					<dim>1</dim>
					<dim>1</dim>
				</port>
			</output>
		</layer>
		<layer id="27" name="/rlfb_qpa/RLFB1/RLFB1.0/c1_r/Conv" type="Add" version="opset1">
			<data auto_broadcast="numpy" />
			<input>
				<port id="0" precision="FP32">
					<dim>8</dim>
					<dim>48</dim>
					<dim>1352</dim>
					<dim>2040</dim>
				</port>
				<port id="1" precision="FP32">
					<dim>1</dim>
					<dim>48</dim>
					<dim>1</dim>
					<dim>1</dim>
				</port>
			</input>
			<output>
				<port id="2" precision="FP32" names="/rlfb_qpa/RLFB1/RLFB1.0/c1_r/Conv_output_0">
					<dim>8</dim>
					<dim>48</dim>
					<dim>1352</dim>
					<dim>2040</dim>
				</port>
			</output>
		</layer>
		<layer id="28" name="Constant_210" type="Const" version="opset1">
			<data element_type="f32" shape="1" offset="21956" size="4" />
			<output>
				<port id="0" precision="FP32">
					<dim>1</dim>
				</port>
			</output>
		</layer>
		<layer id="29" name="/rlfb_qpa/RLFB1/RLFB1.0/act/LeakyRelu" type="PReLU" version="opset1">
			<input>
				<port id="0" precision="FP32">
					<dim>8</dim>
					<dim>48</dim>
					<dim>1352</dim>
					<dim>2040</dim>
				</port>
				<port id="1" precision="FP32">
					<dim>1</dim>
				</port>
			</input>
			<output>
				<port id="2" precision="FP32" names="/rlfb_qpa/RLFB1/RLFB1.0/act/LeakyRelu_output_0">
					<dim>8</dim>
					<dim>48</dim>
					<dim>1352</dim>
					<dim>2040</dim>
				</port>
			</output>
		</layer>
		<layer id="30" name="Constant_5806" type="Const" version="opset1">
			<data element_type="f32" shape="1, 1, 1, 1" offset="21960" size="4" />
			<output>
				<port id="0" precision="FP32">
					<dim>1</dim>
					<dim>1</dim>
					<dim>1</dim>
					<dim>1</dim>
				</port>
			</output>
		</layer>
		<layer id="31" name="Constant_5807" type="Const" version="opset1">
			<data element_type="f32" shape="1, 1, 1, 1" offset="21964" size="4" />
			<output>
				<port id="0" precision="FP32">
					<dim>1</dim>
					<dim>1</dim>
					<dim>1</dim>
					<dim>1</dim>
				</port>
			</output>
		</layer>
		<layer id="32" name="Constant_5808" type="Const" version="opset1">
			<data element_type="f32" shape="1, 1, 1, 1" offset="21960" size="4" />
			<output>
				<port id="0" precision="FP32">
					<dim>1</dim>
					<dim>1</dim>
					<dim>1</dim>
					<dim>1</dim>
				</port>
			</output>
		</layer>
		<layer id="33" name="Constant_5809" type="Const" version="opset1">
			<data element_type="f32" shape="1, 1, 1, 1" offset="21964" size="4" />
			<output>
				<port id="0" precision="FP32">
					<dim>1</dim>
					<dim>1</dim>
					<dim>1</dim>
					<dim>1</dim>
				</port>
			</output>
		</layer>
		<layer id="34" name="/rlfb_qpa/RLFB1/RLFB1.0/act/Generator/RLFB_QPA[rlfb_qpa]/Sequential[RLFB1]/RLFB[0]/LeakyReLU[act]/leaky_relu_0|OUTPUT/FakeQuantize" type="FakeQuantize" version="opset1">
			<data levels="256" auto_broadcast="numpy" />
			<input>
				<port id="0" precision="FP32">
					<dim>8</dim>
					<dim>48</dim>
					<dim>1352</dim>
					<dim>2040</dim>
				</port>
				<port id="1" precision="FP32">
					<dim>1</dim>
					<dim>1</dim>
					<dim>1</dim>
					<dim>1</dim>
				</port>
				<port id="2" precision="FP32">
					<dim>1</dim>
					<dim>1</dim>
					<dim>1</dim>
					<dim>1</dim>
				</port>
				<port id="3" precision="FP32">
					<dim>1</dim>
					<dim>1</dim>
					<dim>1</dim>
					<dim>1</dim>
				</port>
				<port id="4" precision="FP32">
					<dim>1</dim>
					<dim>1</dim>
					<dim>1</dim>
					<dim>1</dim>
				</port>
			</input>
			<output>
				<port id="5" precision="FP32" names="/rlfb_qpa/RLFB1/RLFB1.0/act/Generator/RLFB_QPA[rlfb_qpa]/Sequential[RLFB1]/RLFB[0]/LeakyReLU[act]/leaky_relu_0|OUTPUT/FakeQuantize_output_0">
					<dim>8</dim>
					<dim>48</dim>
					<dim>1352</dim>
					<dim>2040</dim>
				</port>
			</output>
		</layer>
		<layer id="35" name="rlfb_qpa.RLFB1.0.c2_r.weight" type="Const" version="opset1">
			<data element_type="i8" shape="48, 48, 3, 3" offset="21968" size="20736" />
			<output>
				<port id="0" precision="I8">
					<dim>48</dim>
					<dim>48</dim>
					<dim>3</dim>
					<dim>3</dim>
				</port>
			</output>
		</layer>
		<layer id="36" name="Convert_6414" type="Convert" version="opset1">
			<data destination_type="f32" />
			<input>
				<port id="0" precision="I8">
					<dim>48</dim>
					<dim>48</dim>
					<dim>3</dim>
					<dim>3</dim>
				</port>
			</input>
			<output>
				<port id="1" precision="FP32">
					<dim>48</dim>
					<dim>48</dim>
					<dim>3</dim>
					<dim>3</dim>
				</port>
			</output>
		</layer>
		<layer id="37" name="Constant_6351" type="Const" version="opset1">
			<data element_type="f32" shape="48, 1, 1, 1" offset="42704" size="192" />
			<output>
				<port id="0" precision="FP32">
					<dim>48</dim>
					<dim>1</dim>
					<dim>1</dim>
					<dim>1</dim>
				</port>
			</output>
		</layer>
		<layer id="38" name="/rlfb_qpa/RLFB1/RLFB1.0/c2_r/pre_ops.0/op/FakeQuantize" type="Multiply" version="opset1">
			<data auto_broadcast="numpy" />
			<input>
				<port id="0" precision="FP32">
					<dim>48</dim>
					<dim>48</dim>
					<dim>3</dim>
					<dim>3</dim>
				</port>
				<port id="1" precision="FP32">
					<dim>48</dim>
					<dim>1</dim>
					<dim>1</dim>
					<dim>1</dim>
				</port>
			</input>
			<output>
				<port id="2" precision="FP32" names="/rlfb_qpa/RLFB1/RLFB1.0/c2_r/pre_ops.0/op/FakeQuantize_output_0">
					<dim>48</dim>
					<dim>48</dim>
					<dim>3</dim>
					<dim>3</dim>
				</port>
			</output>
		</layer>
		<layer id="39" name="/rlfb_qpa/RLFB1/RLFB1.0/c2_r/Conv/WithoutBiases" type="Convolution" version="opset1">
			<data strides="1, 1" dilations="1, 1" pads_begin="1, 1" pads_end="1, 1" auto_pad="explicit" />
			<input>
				<port id="0" precision="FP32">
					<dim>8</dim>
					<dim>48</dim>
					<dim>1352</dim>
					<dim>2040</dim>
				</port>
				<port id="1" precision="FP32">
					<dim>48</dim>
					<dim>48</dim>
					<dim>3</dim>
					<dim>3</dim>
				</port>
			</input>
			<output>
				<port id="2" precision="FP32">
					<dim>8</dim>
					<dim>48</dim>
					<dim>1352</dim>
					<dim>2040</dim>
				</port>
			</output>
		</layer>
		<layer id="40" name="Reshape_238" type="Const" version="opset1">
			<data element_type="f32" shape="1, 48, 1, 1" offset="42896" size="192" />
			<output>
				<port id="0" precision="FP32">
					<dim>1</dim>
					<dim>48</dim>
					<dim>1</dim>
					<dim>1</dim>
				</port>
			</output>
		</layer>
		<layer id="41" name="/rlfb_qpa/RLFB1/RLFB1.0/c2_r/Conv" type="Add" version="opset1">
			<data auto_broadcast="numpy" />
			<input>
				<port id="0" precision="FP32">
					<dim>8</dim>
					<dim>48</dim>
					<dim>1352</dim>
					<dim>2040</dim>
				</port>
				<port id="1" precision="FP32">
					<dim>1</dim>
					<dim>48</dim>
					<dim>1</dim>
					<dim>1</dim>
				</port>
			</input>
			<output>
				<port id="2" precision="FP32" names="/rlfb_qpa/RLFB1/RLFB1.0/c2_r/Conv_output_0">
					<dim>8</dim>
					<dim>48</dim>
					<dim>1352</dim>
					<dim>2040</dim>
				</port>
			</output>
		</layer>
		<layer id="42" name="Constant_266" type="Const" version="opset1">
			<data element_type="f32" shape="1" offset="21956" size="4" />
			<output>
				<port id="0" precision="FP32">
					<dim>1</dim>
				</port>
			</output>
		</layer>
		<layer id="43" name="/rlfb_qpa/RLFB1/RLFB1.0/act_1/LeakyRelu" type="PReLU" version="opset1">
			<input>
				<port id="0" precision="FP32">
					<dim>8</dim>
					<dim>48</dim>
					<dim>1352</dim>
					<dim>2040</dim>
				</port>
				<port id="1" precision="FP32">
					<dim>1</dim>
				</port>
			</input>
			<output>
				<port id="2" precision="FP32" names="/rlfb_qpa/RLFB1/RLFB1.0/act_1/LeakyRelu_output_0">
					<dim>8</dim>
					<dim>48</dim>
					<dim>1352</dim>
					<dim>2040</dim>
				</port>
			</output>
		</layer>
		<layer id="44" name="Constant_5810" type="Const" version="opset1">
			<data element_type="f32" shape="1, 1, 1, 1" offset="43088" size="4" />
			<output>
				<port id="0" precision="FP32">
					<dim>1</dim>
					<dim>1</dim>
					<dim>1</dim>
					<dim>1</dim>
				</port>
			</output>
		</layer>
		<layer id="45" name="Constant_5811" type="Const" version="opset1">
			<data element_type="f32" shape="1, 1, 1, 1" offset="43092" size="4" />
			<output>
				<port id="0" precision="FP32">
					<dim>1</dim>
					<dim>1</dim>
					<dim>1</dim>
					<dim>1</dim>
				</port>
			</output>
		</layer>
		<layer id="46" name="Constant_5812" type="Const" version="opset1">
			<data element_type="f32" shape="1, 1, 1, 1" offset="43088" size="4" />
			<output>
				<port id="0" precision="FP32">
					<dim>1</dim>
					<dim>1</dim>
					<dim>1</dim>
					<dim>1</dim>
				</port>
			</output>
		</layer>
		<layer id="47" name="Constant_5813" type="Const" version="opset1">
			<data element_type="f32" shape="1, 1, 1, 1" offset="43092" size="4" />
			<output>
				<port id="0" precision="FP32">
					<dim>1</dim>
					<dim>1</dim>
					<dim>1</dim>
					<dim>1</dim>
				</port>
			</output>
		</layer>
		<layer id="48" name="/rlfb_qpa/RLFB1/RLFB1.0/act/Generator/RLFB_QPA[rlfb_qpa]/Sequential[RLFB1]/RLFB[0]/LeakyReLU[act]/leaky_relu_1|OUTPUT/FakeQuantize" type="FakeQuantize" version="opset1">
			<data levels="256" auto_broadcast="numpy" />
			<input>
				<port id="0" precision="FP32">
					<dim>8</dim>
					<dim>48</dim>
					<dim>1352</dim>
					<dim>2040</dim>
				</port>
				<port id="1" precision="FP32">
					<dim>1</dim>
					<dim>1</dim>
					<dim>1</dim>
					<dim>1</dim>
				</port>
				<port id="2" precision="FP32">
					<dim>1</dim>
					<dim>1</dim>
					<dim>1</dim>
					<dim>1</dim>
				</port>
				<port id="3" precision="FP32">
					<dim>1</dim>
					<dim>1</dim>
					<dim>1</dim>
					<dim>1</dim>
				</port>
				<port id="4" precision="FP32">
					<dim>1</dim>
					<dim>1</dim>
					<dim>1</dim>
					<dim>1</dim>
				</port>
			</input>
			<output>
				<port id="5" precision="FP32" names="/rlfb_qpa/RLFB1/RLFB1.0/act/Generator/RLFB_QPA[rlfb_qpa]/Sequential[RLFB1]/RLFB[0]/LeakyReLU[act]/leaky_relu_1|OUTPUT/FakeQuantize_output_0">
					<dim>8</dim>
					<dim>48</dim>
					<dim>1352</dim>
					<dim>2040</dim>
				</port>
			</output>
		</layer>
		<layer id="49" name="rlfb_qpa.RLFB1.0.c3_r.weight" type="Const" version="opset1">
			<data element_type="i8" shape="48, 48, 3, 3" offset="43096" size="20736" />
			<output>
				<port id="0" precision="I8">
					<dim>48</dim>
					<dim>48</dim>
					<dim>3</dim>
					<dim>3</dim>
				</port>
			</output>
		</layer>
		<layer id="50" name="Convert_6535" type="Convert" version="opset1">
			<data destination_type="f32" />
			<input>
				<port id="0" precision="I8">
					<dim>48</dim>
					<dim>48</dim>
					<dim>3</dim>
					<dim>3</dim>
				</port>
			</input>
			<output>
				<port id="1" precision="FP32">
					<dim>48</dim>
					<dim>48</dim>
					<dim>3</dim>
					<dim>3</dim>
				</port>
			</output>
		</layer>
		<layer id="51" name="Constant_6472" type="Const" version="opset1">
			<data element_type="f32" shape="48, 1, 1, 1" offset="63832" size="192" />
			<output>
				<port id="0" precision="FP32">
					<dim>48</dim>
					<dim>1</dim>
					<dim>1</dim>
					<dim>1</dim>
				</port>
			</output>
		</layer>
		<layer id="52" name="/rlfb_qpa/RLFB1/RLFB1.0/c3_r/pre_ops.0/op/FakeQuantize" type="Multiply" version="opset1">
			<data auto_broadcast="numpy" />
			<input>
				<port id="0" precision="FP32">
					<dim>48</dim>
					<dim>48</dim>
					<dim>3</dim>
					<dim>3</dim>
				</port>
				<port id="1" precision="FP32">
					<dim>48</dim>
					<dim>1</dim>
					<dim>1</dim>
					<dim>1</dim>
				</port>
			</input>
			<output>
				<port id="2" precision="FP32" names="/rlfb_qpa/RLFB1/RLFB1.0/c3_r/pre_ops.0/op/FakeQuantize_output_0">
					<dim>48</dim>
					<dim>48</dim>
					<dim>3</dim>
					<dim>3</dim>
				</port>
			</output>
		</layer>
		<layer id="53" name="/rlfb_qpa/RLFB1/RLFB1.0/c3_r/Conv/WithoutBiases" type="Convolution" version="opset1">
			<data strides="1, 1" dilations="1, 1" pads_begin="1, 1" pads_end="1, 1" auto_pad="explicit" />
			<input>
				<port id="0" precision="FP32">
					<dim>8</dim>
					<dim>48</dim>
					<dim>1352</dim>
					<dim>2040</dim>
				</port>
				<port id="1" precision="FP32">
					<dim>48</dim>
					<dim>48</dim>
					<dim>3</dim>
					<dim>3</dim>
				</port>
			</input>
			<output>
				<port id="2" precision="FP32">
					<dim>8</dim>
					<dim>48</dim>
					<dim>1352</dim>
					<dim>2040</dim>
				</port>
			</output>
		</layer>
		<layer id="54" name="Reshape_294" type="Const" version="opset1">
			<data element_type="f32" shape="1, 48, 1, 1" offset="64024" size="192" />
			<output>
				<port id="0" precision="FP32">
					<dim>1</dim>
					<dim>48</dim>
					<dim>1</dim>
					<dim>1</dim>
				</port>
			</output>
		</layer>
		<layer id="55" name="/rlfb_qpa/RLFB1/RLFB1.0/c3_r/Conv" type="Add" version="opset1">
			<data auto_broadcast="numpy" />
			<input>
				<port id="0" precision="FP32">
					<dim>8</dim>
					<dim>48</dim>
					<dim>1352</dim>
					<dim>2040</dim>
				</port>
				<port id="1" precision="FP32">
					<dim>1</dim>
					<dim>48</dim>
					<dim>1</dim>
					<dim>1</dim>
				</port>
			</input>
			<output>
				<port id="2" precision="FP32" names="/rlfb_qpa/RLFB1/RLFB1.0/c3_r/Conv_output_0">
					<dim>8</dim>
					<dim>48</dim>
					<dim>1352</dim>
					<dim>2040</dim>
				</port>
			</output>
		</layer>
		<layer id="56" name="Constant_322" type="Const" version="opset1">
			<data element_type="f32" shape="1" offset="21956" size="4" />
			<output>
				<port id="0" precision="FP32">
					<dim>1</dim>
				</port>
			</output>
		</layer>
		<layer id="57" name="/rlfb_qpa/RLFB1/RLFB1.0/act_2/LeakyRelu" type="PReLU" version="opset1">
			<input>
				<port id="0" precision="FP32">
					<dim>8</dim>
					<dim>48</dim>
					<dim>1352</dim>
					<dim>2040</dim>
				</port>
				<port id="1" precision="FP32">
					<dim>1</dim>
				</port>
			</input>
			<output>
				<port id="2" precision="FP32" names="/rlfb_qpa/RLFB1/RLFB1.0/act_2/LeakyRelu_output_0">
					<dim>8</dim>
					<dim>48</dim>
					<dim>1352</dim>
					<dim>2040</dim>
				</port>
			</output>
		</layer>
		<layer id="58" name="Constant_5814" type="Const" version="opset1">
			<data element_type="f32" shape="1, 1, 1, 1" offset="64216" size="4" />
			<output>
				<port id="0" precision="FP32">
					<dim>1</dim>
					<dim>1</dim>
					<dim>1</dim>
					<dim>1</dim>
				</port>
			</output>
		</layer>
		<layer id="59" name="Constant_5815" type="Const" version="opset1">
			<data element_type="f32" shape="1, 1, 1, 1" offset="64220" size="4" />
			<output>
				<port id="0" precision="FP32">
					<dim>1</dim>
					<dim>1</dim>
					<dim>1</dim>
					<dim>1</dim>
				</port>
			</output>
		</layer>
		<layer id="60" name="Constant_5816" type="Const" version="opset1">
			<data element_type="f32" shape="1, 1, 1, 1" offset="64216" size="4" />
			<output>
				<port id="0" precision="FP32">
					<dim>1</dim>
					<dim>1</dim>
					<dim>1</dim>
					<dim>1</dim>
				</port>
			</output>
		</layer>
		<layer id="61" name="Constant_5817" type="Const" version="opset1">
			<data element_type="f32" shape="1, 1, 1, 1" offset="64220" size="4" />
			<output>
				<port id="0" precision="FP32">
					<dim>1</dim>
					<dim>1</dim>
					<dim>1</dim>
					<dim>1</dim>
				</port>
			</output>
		</layer>
		<layer id="62" name="/rlfb_qpa/RLFB1/RLFB1.0/act/Generator/RLFB_QPA[rlfb_qpa]/Sequential[RLFB1]/RLFB[0]/LeakyReLU[act]/leaky_relu_2|OUTPUT/FakeQuantize" type="FakeQuantize" version="opset1">
			<data levels="256" auto_broadcast="numpy" />
			<input>
				<port id="0" precision="FP32">
					<dim>8</dim>
					<dim>48</dim>
					<dim>1352</dim>
					<dim>2040</dim>
				</port>
				<port id="1" precision="FP32">
					<dim>1</dim>
					<dim>1</dim>
					<dim>1</dim>
					<dim>1</dim>
				</port>
				<port id="2" precision="FP32">
					<dim>1</dim>
					<dim>1</dim>
					<dim>1</dim>
					<dim>1</dim>
				</port>
				<port id="3" precision="FP32">
					<dim>1</dim>
					<dim>1</dim>
					<dim>1</dim>
					<dim>1</dim>
				</port>
				<port id="4" precision="FP32">
					<dim>1</dim>
					<dim>1</dim>
					<dim>1</dim>
					<dim>1</dim>
				</port>
			</input>
			<output>
				<port id="5" precision="FP32" names="/rlfb_qpa/RLFB1/RLFB1.0/act/Generator/RLFB_QPA[rlfb_qpa]/Sequential[RLFB1]/RLFB[0]/LeakyReLU[act]/leaky_relu_2|OUTPUT/FakeQuantize_output_0">
					<dim>8</dim>
					<dim>48</dim>
					<dim>1352</dim>
					<dim>2040</dim>
				</port>
			</output>
		</layer>
		<layer id="63" name="/rlfb_qpa/RLFB1/RLFB1.0/Add" type="Add" version="opset1">
			<data auto_broadcast="numpy" />
			<input>
				<port id="0" precision="FP32">
					<dim>8</dim>
					<dim>48</dim>
					<dim>1352</dim>
					<dim>2040</dim>
				</port>
				<port id="1" precision="FP32">
					<dim>8</dim>
					<dim>48</dim>
					<dim>1352</dim>
					<dim>2040</dim>
				</port>
			</input>
			<output>
				<port id="2" precision="FP32" names="/rlfb_qpa/RLFB1/RLFB1.0/Add_output_0">
					<dim>8</dim>
					<dim>48</dim>
					<dim>1352</dim>
					<dim>2040</dim>
				</port>
			</output>
		</layer>
		<layer id="64" name="Constant_5818" type="Const" version="opset1">
			<data element_type="f32" shape="1, 1, 1, 1" offset="64224" size="4" />
			<output>
				<port id="0" precision="FP32">
					<dim>1</dim>
					<dim>1</dim>
					<dim>1</dim>
					<dim>1</dim>
				</port>
			</output>
		</layer>
		<layer id="65" name="Constant_5819" type="Const" version="opset1">
			<data element_type="f32" shape="1, 1, 1, 1" offset="64228" size="4" />
			<output>
				<port id="0" precision="FP32">
					<dim>1</dim>
					<dim>1</dim>
					<dim>1</dim>
					<dim>1</dim>
				</port>
			</output>
		</layer>
		<layer id="66" name="Constant_5820" type="Const" version="opset1">
			<data element_type="f32" shape="1, 1, 1, 1" offset="64224" size="4" />
			<output>
				<port id="0" precision="FP32">
					<dim>1</dim>
					<dim>1</dim>
					<dim>1</dim>
					<dim>1</dim>
				</port>
			</output>
		</layer>
		<layer id="67" name="Constant_5821" type="Const" version="opset1">
			<data element_type="f32" shape="1, 1, 1, 1" offset="64228" size="4" />
			<output>
				<port id="0" precision="FP32">
					<dim>1</dim>
					<dim>1</dim>
					<dim>1</dim>
					<dim>1</dim>
				</port>
			</output>
		</layer>
		<layer id="68" name="/rlfb_qpa/RLFB1/RLFB1.0/Generator/RLFB_QPA[rlfb_qpa]/Sequential[RLFB1]/RLFB[0]/__add___0|OUTPUT/FakeQuantize" type="FakeQuantize" version="opset1">
			<data levels="256" auto_broadcast="numpy" />
			<input>
				<port id="0" precision="FP32">
					<dim>8</dim>
					<dim>48</dim>
					<dim>1352</dim>
					<dim>2040</dim>
				</port>
				<port id="1" precision="FP32">
					<dim>1</dim>
					<dim>1</dim>
					<dim>1</dim>
					<dim>1</dim>
				</port>
				<port id="2" precision="FP32">
					<dim>1</dim>
					<dim>1</dim>
					<dim>1</dim>
					<dim>1</dim>
				</port>
				<port id="3" precision="FP32">
					<dim>1</dim>
					<dim>1</dim>
					<dim>1</dim>
					<dim>1</dim>
				</port>
				<port id="4" precision="FP32">
					<dim>1</dim>
					<dim>1</dim>
					<dim>1</dim>
					<dim>1</dim>
				</port>
			</input>
			<output>
				<port id="5" precision="FP32" names="/rlfb_qpa/RLFB1/RLFB1.0/Generator/RLFB_QPA[rlfb_qpa]/Sequential[RLFB1]/RLFB[0]/__add___0|OUTPUT/FakeQuantize_output_0">
					<dim>8</dim>
					<dim>48</dim>
					<dim>1352</dim>
					<dim>2040</dim>
				</port>
			</output>
		</layer>
		<layer id="69" name="rlfb_qpa.RLFB1.0.c5.weight" type="Const" version="opset1">
			<data element_type="i8" shape="48, 48, 1, 1" offset="64232" size="2304" />
			<output>
				<port id="0" precision="I8">
					<dim>48</dim>
					<dim>48</dim>
					<dim>1</dim>
					<dim>1</dim>
				</port>
			</output>
		</layer>
		<layer id="70" name="Convert_6656" type="Convert" version="opset1">
			<data destination_type="f32" />
			<input>
				<port id="0" precision="I8">
					<dim>48</dim>
					<dim>48</dim>
					<dim>1</dim>
					<dim>1</dim>
				</port>
			</input>
			<output>
				<port id="1" precision="FP32">
					<dim>48</dim>
					<dim>48</dim>
					<dim>1</dim>
					<dim>1</dim>
				</port>
			</output>
		</layer>
		<layer id="71" name="Constant_6593" type="Const" version="opset1">
			<data element_type="f32" shape="48, 1, 1, 1" offset="66536" size="192" />
			<output>
				<port id="0" precision="FP32">
					<dim>48</dim>
					<dim>1</dim>
					<dim>1</dim>
					<dim>1</dim>
				</port>
			</output>
		</layer>
		<layer id="72" name="/rlfb_qpa/RLFB1/RLFB1.0/c5/pre_ops.0/op/FakeQuantize" type="Multiply" version="opset1">
			<data auto_broadcast="numpy" />
			<input>
				<port id="0" precision="FP32">
					<dim>48</dim>
					<dim>48</dim>
					<dim>1</dim>
					<dim>1</dim>
				</port>
				<port id="1" precision="FP32">
					<dim>48</dim>
					<dim>1</dim>
					<dim>1</dim>
					<dim>1</dim>
				</port>
			</input>
			<output>
				<port id="2" precision="FP32" names="/rlfb_qpa/RLFB1/RLFB1.0/c5/pre_ops.0/op/FakeQuantize_output_0">
					<dim>48</dim>
					<dim>48</dim>
					<dim>1</dim>
					<dim>1</dim>
				</port>
			</output>
		</layer>
		<layer id="73" name="/rlfb_qpa/RLFB1/RLFB1.0/c5/Conv/WithoutBiases" type="Convolution" version="opset1">
			<data strides="1, 1" dilations="1, 1" pads_begin="0, 0" pads_end="0, 0" auto_pad="explicit" />
			<input>
				<port id="0" precision="FP32">
					<dim>8</dim>
					<dim>48</dim>
					<dim>1352</dim>
					<dim>2040</dim>
				</port>
				<port id="1" precision="FP32">
					<dim>48</dim>
					<dim>48</dim>
					<dim>1</dim>
					<dim>1</dim>
				</port>
			</input>
			<output>
				<port id="2" precision="FP32">
					<dim>8</dim>
					<dim>48</dim>
					<dim>1352</dim>
					<dim>2040</dim>
				</port>
			</output>
		</layer>
		<layer id="74" name="Reshape_354" type="Const" version="opset1">
			<data element_type="f32" shape="1, 48, 1, 1" offset="66728" size="192" />
			<output>
				<port id="0" precision="FP32">
					<dim>1</dim>
					<dim>48</dim>
					<dim>1</dim>
					<dim>1</dim>
				</port>
			</output>
		</layer>
		<layer id="75" name="/rlfb_qpa/RLFB1/RLFB1.0/c5/Conv" type="Add" version="opset1">
			<data auto_broadcast="numpy" />
			<input>
				<port id="0" precision="FP32">
					<dim>8</dim>
					<dim>48</dim>
					<dim>1352</dim>
					<dim>2040</dim>
				</port>
				<port id="1" precision="FP32">
					<dim>1</dim>
					<dim>48</dim>
					<dim>1</dim>
					<dim>1</dim>
				</port>
			</input>
			<output>
				<port id="2" precision="FP32" names="/rlfb_qpa/RLFB1/RLFB1.0/c5/Conv_output_0">
					<dim>8</dim>
					<dim>48</dim>
					<dim>1352</dim>
					<dim>2040</dim>
				</port>
			</output>
		</layer>
		<layer id="76" name="Constant_5822" type="Const" version="opset1">
			<data element_type="f32" shape="1, 1, 1, 1" offset="66920" size="4" />
			<output>
				<port id="0" precision="FP32">
					<dim>1</dim>
					<dim>1</dim>
					<dim>1</dim>
					<dim>1</dim>
				</port>
			</output>
		</layer>
		<layer id="77" name="Constant_5823" type="Const" version="opset1">
			<data element_type="f32" shape="1, 1, 1, 1" offset="66924" size="4" />
			<output>
				<port id="0" precision="FP32">
					<dim>1</dim>
					<dim>1</dim>
					<dim>1</dim>
					<dim>1</dim>
				</port>
			</output>
		</layer>
		<layer id="78" name="Constant_5824" type="Const" version="opset1">
			<data element_type="f32" shape="1, 1, 1, 1" offset="66920" size="4" />
			<output>
				<port id="0" precision="FP32">
					<dim>1</dim>
					<dim>1</dim>
					<dim>1</dim>
					<dim>1</dim>
				</port>
			</output>
		</layer>
		<layer id="79" name="Constant_5825" type="Const" version="opset1">
			<data element_type="f32" shape="1, 1, 1, 1" offset="66924" size="4" />
			<output>
				<port id="0" precision="FP32">
					<dim>1</dim>
					<dim>1</dim>
					<dim>1</dim>
					<dim>1</dim>
				</port>
			</output>
		</layer>
		<layer id="80" name="/rlfb_qpa/RLFB1/RLFB1.0/c5/Generator/RLFB_QPA[rlfb_qpa]/Sequential[RLFB1]/RLFB[0]/NNCFConv2d[c5]/conv2d_0|OUTPUT/FakeQuantize" type="FakeQuantize" version="opset1">
			<data levels="256" auto_broadcast="numpy" />
			<input>
				<port id="0" precision="FP32">
					<dim>8</dim>
					<dim>48</dim>
					<dim>1352</dim>
					<dim>2040</dim>
				</port>
				<port id="1" precision="FP32">
					<dim>1</dim>
					<dim>1</dim>
					<dim>1</dim>
					<dim>1</dim>
				</port>
				<port id="2" precision="FP32">
					<dim>1</dim>
					<dim>1</dim>
					<dim>1</dim>
					<dim>1</dim>
				</port>
				<port id="3" precision="FP32">
					<dim>1</dim>
					<dim>1</dim>
					<dim>1</dim>
					<dim>1</dim>
				</port>
				<port id="4" precision="FP32">
					<dim>1</dim>
					<dim>1</dim>
					<dim>1</dim>
					<dim>1</dim>
				</port>
			</input>
			<output>
				<port id="5" precision="FP32" names="/rlfb_qpa/RLFB1/RLFB1.0/c5/Generator/RLFB_QPA[rlfb_qpa]/Sequential[RLFB1]/RLFB[0]/NNCFConv2d[c5]/conv2d_0|OUTPUT/FakeQuantize_output_0">
					<dim>8</dim>
					<dim>48</dim>
					<dim>1352</dim>
					<dim>2040</dim>
				</port>
			</output>
		</layer>
		<layer id="81" name="Constant_5826" type="Const" version="opset1">
			<data element_type="f32" shape="1" offset="0" size="4" />
			<output>
				<port id="0" precision="FP32">
					<dim>1</dim>
				</port>
			</output>
		</layer>
		<layer id="82" name="Constant_5827" type="Const" version="opset1">
			<data element_type="f32" shape="1" offset="66928" size="4" />
			<output>
				<port id="0" precision="FP32">
					<dim>1</dim>
				</port>
			</output>
		</layer>
		<layer id="83" name="Constant_5828" type="Const" version="opset1">
			<data element_type="f32" shape="1" offset="0" size="4" />
			<output>
				<port id="0" precision="FP32">
					<dim>1</dim>
				</port>
			</output>
		</layer>
		<layer id="84" name="Constant_5829" type="Const" version="opset1">
			<data element_type="f32" shape="1" offset="66928" size="4" />
			<output>
				<port id="0" precision="FP32">
					<dim>1</dim>
				</port>
			</output>
		</layer>
		<layer id="85" name="//nncf_model_input_0|OUTPUT/FakeQuantize" type="FakeQuantize" version="opset1">
			<data levels="256" auto_broadcast="numpy" />
			<input>
				<port id="0" precision="FP32">
					<dim>8</dim>
				</port>
				<port id="1" precision="FP32">
					<dim>1</dim>
				</port>
				<port id="2" precision="FP32">
					<dim>1</dim>
				</port>
				<port id="3" precision="FP32">
					<dim>1</dim>
				</port>
				<port id="4" precision="FP32">
					<dim>1</dim>
				</port>
			</input>
			<output>
				<port id="5" precision="FP32" names="//nncf_model_input_0|OUTPUT/FakeQuantize_output_0">
					<dim>8</dim>
				</port>
			</output>
		</layer>
		<layer id="86" name="/Constant" type="Const" version="opset1">
			<data element_type="i64" shape="1" offset="66932" size="8" />
			<output>
				<port id="0" precision="I64" names="/Constant_output_0">
					<dim>1</dim>
				</port>
			</output>
		</layer>
		<layer id="87" name="/Unsqueeze" type="Unsqueeze" version="opset1">
			<input>
				<port id="0" precision="FP32">
					<dim>8</dim>
				</port>
				<port id="1" precision="I64">
					<dim>1</dim>
				</port>
			</input>
			<output>
				<port id="2" precision="FP32" names="/Unsqueeze_output_0">
					<dim>8</dim>
					<dim>1</dim>
				</port>
			</output>
		</layer>
		<layer id="88" name="rlfb_qpa.liner_gamma.weight" type="Const" version="opset1">
			<data element_type="i8" shape="48, 1" offset="66940" size="48" />
			<output>
				<port id="0" precision="I8">
					<dim>48</dim>
					<dim>1</dim>
				</port>
			</output>
		</layer>
		<layer id="89" name="Convert_6777" type="Convert" version="opset1">
			<data destination_type="f32" />
			<input>
				<port id="0" precision="I8">
					<dim>48</dim>
					<dim>1</dim>
				</port>
			</input>
			<output>
				<port id="1" precision="FP32">
					<dim>48</dim>
					<dim>1</dim>
				</port>
			</output>
		</layer>
		<layer id="90" name="Constant_6714" type="Const" version="opset1">
			<data element_type="f32" shape="48, 1" offset="66988" size="192" />
			<output>
				<port id="0" precision="FP32">
					<dim>48</dim>
					<dim>1</dim>
				</port>
			</output>
		</layer>
		<layer id="91" name="/rlfb_qpa/liner_gamma/pre_ops.0/op/FakeQuantize" type="Multiply" version="opset1">
			<data auto_broadcast="numpy" />
			<input>
				<port id="0" precision="FP32">
					<dim>48</dim>
					<dim>1</dim>
				</port>
				<port id="1" precision="FP32">
					<dim>48</dim>
					<dim>1</dim>
				</port>
			</input>
			<output>
				<port id="2" precision="FP32" names="/rlfb_qpa/liner_gamma/pre_ops.0/op/FakeQuantize_output_0">
					<dim>48</dim>
					<dim>1</dim>
				</port>
			</output>
		</layer>
		<layer id="92" name="/rlfb_qpa/liner_gamma/Gemm/WithoutBiases" type="MatMul" version="opset1">
			<data transpose_a="false" transpose_b="true" />
			<input>
				<port id="0" precision="FP32">
					<dim>8</dim>
					<dim>1</dim>
				</port>
				<port id="1" precision="FP32">
					<dim>48</dim>
					<dim>1</dim>
				</port>
			</input>
			<output>
				<port id="2" precision="FP32">
					<dim>8</dim>
					<dim>48</dim>
				</port>
			</output>
		</layer>
		<layer id="93" name="Constant_5830" type="Const" version="opset1">
			<data element_type="f32" shape="1, 48" offset="67180" size="192" />
			<output>
				<port id="0" precision="FP32">
					<dim>1</dim>
					<dim>48</dim>
				</port>
			</output>
		</layer>
		<layer id="94" name="/rlfb_qpa/liner_gamma/Gemm" type="Add" version="opset1">
			<data auto_broadcast="numpy" />
			<input>
				<port id="0" precision="FP32">
					<dim>8</dim>
					<dim>48</dim>
				</port>
				<port id="1" precision="FP32">
					<dim>1</dim>
					<dim>48</dim>
				</port>
			</input>
			<output>
				<port id="2" precision="FP32" names="/rlfb_qpa/liner_gamma/Gemm_output_0">
					<dim>8</dim>
					<dim>48</dim>
				</port>
			</output>
		</layer>
		<layer id="95" name="Constant_5831" type="Const" version="opset1">
			<data element_type="f32" shape="1, 1" offset="67372" size="4" />
			<output>
				<port id="0" precision="FP32">
					<dim>1</dim>
					<dim>1</dim>
				</port>
			</output>
		</layer>
		<layer id="96" name="Constant_5832" type="Const" version="opset1">
			<data element_type="f32" shape="1, 1" offset="67376" size="4" />
			<output>
				<port id="0" precision="FP32">
					<dim>1</dim>
					<dim>1</dim>
				</port>
			</output>
		</layer>
		<layer id="97" name="Constant_5833" type="Const" version="opset1">
			<data element_type="f32" shape="1, 1" offset="67372" size="4" />
			<output>
				<port id="0" precision="FP32">
					<dim>1</dim>
					<dim>1</dim>
				</port>
			</output>
		</layer>
		<layer id="98" name="Constant_5834" type="Const" version="opset1">
			<data element_type="f32" shape="1, 1" offset="67376" size="4" />
			<output>
				<port id="0" precision="FP32">
					<dim>1</dim>
					<dim>1</dim>
				</port>
			</output>
		</layer>
		<layer id="99" name="/rlfb_qpa/liner_gamma/Generator/RLFB_QPA[rlfb_qpa]/NNCFLinear[liner_gamma]/linear_0|OUTPUT/FakeQuantize" type="FakeQuantize" version="opset1">
			<data levels="256" auto_broadcast="numpy" />
			<input>
				<port id="0" precision="FP32">
					<dim>8</dim>
					<dim>48</dim>
				</port>
				<port id="1" precision="FP32">
					<dim>1</dim>
					<dim>1</dim>
				</port>
				<port id="2" precision="FP32">
					<dim>1</dim>
					<dim>1</dim>
				</port>
				<port id="3" precision="FP32">
					<dim>1</dim>
					<dim>1</dim>
				</port>
				<port id="4" precision="FP32">
					<dim>1</dim>
					<dim>1</dim>
				</port>
			</input>
			<output>
				<port id="5" precision="FP32" names="/rlfb_qpa/liner_gamma/Generator/RLFB_QPA[rlfb_qpa]/NNCFLinear[liner_gamma]/linear_0|OUTPUT/FakeQuantize_output_0">
					<dim>8</dim>
					<dim>48</dim>
				</port>
			</output>
		</layer>
		<layer id="100" name="/rlfb_qpa/qp_att1/Constant" type="Const" version="opset1">
			<data element_type="i64" shape="1" offset="67380" size="8" />
			<output>
				<port id="0" precision="I64" names="/rlfb_qpa/qp_att1/Constant_output_0">
					<dim>1</dim>
				</port>
			</output>
		</layer>
		<layer id="101" name="/rlfb_qpa/qp_att1/Unsqueeze" type="Unsqueeze" version="opset1">
			<input>
				<port id="0" precision="FP32">
					<dim>8</dim>
					<dim>48</dim>
				</port>
				<port id="1" precision="I64">
					<dim>1</dim>
				</port>
			</input>
			<output>
				<port id="2" precision="FP32" names="/rlfb_qpa/qp_att1/Unsqueeze_output_0">
					<dim>8</dim>
					<dim>48</dim>
					<dim>1</dim>
				</port>
			</output>
		</layer>
		<layer id="102" name="/rlfb_qpa/qp_att1/Constant_1" type="Const" version="opset1">
			<data element_type="i64" shape="1" offset="67380" size="8" />
			<output>
				<port id="0" precision="I64" names="/rlfb_qpa/qp_att1/Constant_1_output_0">
					<dim>1</dim>
				</port>
			</output>
		</layer>
		<layer id="103" name="/rlfb_qpa/qp_att1/Unsqueeze_1" type="Unsqueeze" version="opset1">
			<input>
				<port id="0" precision="FP32">
					<dim>8</dim>
					<dim>48</dim>
					<dim>1</dim>
				</port>
				<port id="1" precision="I64">
					<dim>1</dim>
				</port>
			</input>
			<output>
				<port id="2" precision="FP32" names="/rlfb_qpa/qp_att1/Unsqueeze_1_output_0">
					<dim>8</dim>
					<dim>48</dim>
					<dim>1</dim>
					<dim>1</dim>
				</port>
			</output>
		</layer>
		<layer id="104" name="rlfb_qpa.qp_att1.res.weight" type="Const" version="opset1">
			<data element_type="i8" shape="48, 48, 3, 3" offset="67388" size="20736" />
			<output>
				<port id="0" precision="I8">
					<dim>48</dim>
					<dim>48</dim>
					<dim>3</dim>
					<dim>3</dim>
				</port>
			</output>
		</layer>
		<layer id="105" name="Convert_6898" type="Convert" version="opset1">
			<data destination_type="f32" />
			<input>
				<port id="0" precision="I8">
					<dim>48</dim>
					<dim>48</dim>
					<dim>3</dim>
					<dim>3</dim>
				</port>
			</input>
			<output>
				<port id="1" precision="FP32">
					<dim>48</dim>
					<dim>48</dim>
					<dim>3</dim>
					<dim>3</dim>
				</port>
			</output>
		</layer>
		<layer id="106" name="Constant_6835" type="Const" version="opset1">
			<data element_type="f32" shape="48, 1, 1, 1" offset="88124" size="192" />
			<output>
				<port id="0" precision="FP32">
					<dim>48</dim>
					<dim>1</dim>
					<dim>1</dim>
					<dim>1</dim>
				</port>
			</output>
		</layer>
		<layer id="107" name="/rlfb_qpa/qp_att1/res/pre_ops.0/op/FakeQuantize" type="Multiply" version="opset1">
			<data auto_broadcast="numpy" />
			<input>
				<port id="0" precision="FP32">
					<dim>48</dim>
					<dim>48</dim>
					<dim>3</dim>
					<dim>3</dim>
				</port>
				<port id="1" precision="FP32">
					<dim>48</dim>
					<dim>1</dim>
					<dim>1</dim>
					<dim>1</dim>
				</port>
			</input>
			<output>
				<port id="2" precision="FP32" names="/rlfb_qpa/qp_att1/res/pre_ops.0/op/FakeQuantize_output_0">
					<dim>48</dim>
					<dim>48</dim>
					<dim>3</dim>
					<dim>3</dim>
				</port>
			</output>
		</layer>
		<layer id="108" name="/rlfb_qpa/qp_att1/res/Conv/WithoutBiases" type="Convolution" version="opset1">
			<data strides="1, 1" dilations="1, 1" pads_begin="1, 1" pads_end="1, 1" auto_pad="explicit" />
			<input>
				<port id="0" precision="FP32">
					<dim>8</dim>
					<dim>48</dim>
					<dim>1352</dim>
					<dim>2040</dim>
				</port>
				<port id="1" precision="FP32">
					<dim>48</dim>
					<dim>48</dim>
					<dim>3</dim>
					<dim>3</dim>
				</port>
			</input>
			<output>
				<port id="2" precision="FP32">
					<dim>8</dim>
					<dim>48</dim>
					<dim>1352</dim>
					<dim>2040</dim>
				</port>
			</output>
		</layer>
		<layer id="109" name="Reshape_416" type="Const" version="opset1">
			<data element_type="f32" shape="1, 48, 1, 1" offset="88316" size="192" />
			<output>
				<port id="0" precision="FP32">
					<dim>1</dim>
					<dim>48</dim>
					<dim>1</dim>
					<dim>1</dim>
				</port>
			</output>
		</layer>
		<layer id="110" name="/rlfb_qpa/qp_att1/res/Conv" type="Add" version="opset1">
			<data auto_broadcast="numpy" />
			<input>
				<port id="0" precision="FP32">
					<dim>8</dim>
					<dim>48</dim>
					<dim>1352</dim>
					<dim>2040</dim>
				</port>
				<port id="1" precision="FP32">
					<dim>1</dim>
					<dim>48</dim>
					<dim>1</dim>
					<dim>1</dim>
				</port>
			</input>
			<output>
				<port id="2" precision="FP32" names="/rlfb_qpa/qp_att1/res/Conv_output_0">
					<dim>8</dim>
					<dim>48</dim>
					<dim>1352</dim>
					<dim>2040</dim>
				</port>
			</output>
		</layer>
		<layer id="111" name="Constant_5835" type="Const" version="opset1">
			<data element_type="f32" shape="1, 1, 1, 1" offset="88508" size="4" />
			<output>
				<port id="0" precision="FP32">
					<dim>1</dim>
					<dim>1</dim>
					<dim>1</dim>
					<dim>1</dim>
				</port>
			</output>
		</layer>
		<layer id="112" name="Constant_5836" type="Const" version="opset1">
			<data element_type="f32" shape="1, 1, 1, 1" offset="88512" size="4" />
			<output>
				<port id="0" precision="FP32">
					<dim>1</dim>
					<dim>1</dim>
					<dim>1</dim>
					<dim>1</dim>
				</port>
			</output>
		</layer>
		<layer id="113" name="Constant_5837" type="Const" version="opset1">
			<data element_type="f32" shape="1, 1, 1, 1" offset="88508" size="4" />
			<output>
				<port id="0" precision="FP32">
					<dim>1</dim>
					<dim>1</dim>
					<dim>1</dim>
					<dim>1</dim>
				</port>
			</output>
		</layer>
		<layer id="114" name="Constant_5838" type="Const" version="opset1">
			<data element_type="f32" shape="1, 1, 1, 1" offset="88512" size="4" />
			<output>
				<port id="0" precision="FP32">
					<dim>1</dim>
					<dim>1</dim>
					<dim>1</dim>
					<dim>1</dim>
				</port>
			</output>
		</layer>
		<layer id="115" name="/rlfb_qpa/qp_att1/res/Generator/RLFB_QPA[rlfb_qpa]/QPAttention[qp_att1]/NNCFConv2d[res]/conv2d_0|OUTPUT/FakeQuantize" type="FakeQuantize" version="opset1">
			<data levels="256" auto_broadcast="numpy" />
			<input>
				<port id="0" precision="FP32">
					<dim>8</dim>
					<dim>48</dim>
					<dim>1352</dim>
					<dim>2040</dim>
				</port>
				<port id="1" precision="FP32">
					<dim>1</dim>
					<dim>1</dim>
					<dim>1</dim>
					<dim>1</dim>
				</port>
				<port id="2" precision="FP32">
					<dim>1</dim>
					<dim>1</dim>
					<dim>1</dim>
					<dim>1</dim>
				</port>
				<port id="3" precision="FP32">
					<dim>1</dim>
					<dim>1</dim>
					<dim>1</dim>
					<dim>1</dim>
				</port>
				<port id="4" precision="FP32">
					<dim>1</dim>
					<dim>1</dim>
					<dim>1</dim>
					<dim>1</dim>
				</port>
			</input>
			<output>
				<port id="5" precision="FP32" names="/rlfb_qpa/qp_att1/res/Generator/RLFB_QPA[rlfb_qpa]/QPAttention[qp_att1]/NNCFConv2d[res]/conv2d_0|OUTPUT/FakeQuantize_output_0">
					<dim>8</dim>
					<dim>48</dim>
					<dim>1352</dim>
					<dim>2040</dim>
				</port>
			</output>
		</layer>
		<layer id="116" name="/rlfb_qpa/qp_att1/Mul" type="Multiply" version="opset1">
			<data auto_broadcast="numpy" />
			<input>
				<port id="0" precision="FP32">
					<dim>8</dim>
					<dim>48</dim>
					<dim>1</dim>
					<dim>1</dim>
				</port>
				<port id="1" precision="FP32">
					<dim>8</dim>
					<dim>48</dim>
					<dim>1352</dim>
					<dim>2040</dim>
				</port>
			</input>
			<output>
				<port id="2" precision="FP32" names="/rlfb_qpa/qp_att1/Mul_output_0">
					<dim>8</dim>
					<dim>48</dim>
					<dim>1352</dim>
					<dim>2040</dim>
				</port>
			</output>
		</layer>
		<layer id="117" name="Constant_5839" type="Const" version="opset1">
			<data element_type="f32" shape="1, 1, 1, 1" offset="88516" size="4" />
			<output>
				<port id="0" precision="FP32">
					<dim>1</dim>
					<dim>1</dim>
					<dim>1</dim>
					<dim>1</dim>
				</port>
			</output>
		</layer>
		<layer id="118" name="Constant_5840" type="Const" version="opset1">
			<data element_type="f32" shape="1, 1, 1, 1" offset="88520" size="4" />
			<output>
				<port id="0" precision="FP32">
					<dim>1</dim>
					<dim>1</dim>
					<dim>1</dim>
					<dim>1</dim>
				</port>
			</output>
		</layer>
		<layer id="119" name="Constant_5841" type="Const" version="opset1">
			<data element_type="f32" shape="1, 1, 1, 1" offset="88516" size="4" />
			<output>
				<port id="0" precision="FP32">
					<dim>1</dim>
					<dim>1</dim>
					<dim>1</dim>
					<dim>1</dim>
				</port>
			</output>
		</layer>
		<layer id="120" name="Constant_5842" type="Const" version="opset1">
			<data element_type="f32" shape="1, 1, 1, 1" offset="88520" size="4" />
			<output>
				<port id="0" precision="FP32">
					<dim>1</dim>
					<dim>1</dim>
					<dim>1</dim>
					<dim>1</dim>
				</port>
			</output>
		</layer>
		<layer id="121" name="/rlfb_qpa/qp_att1/Generator/RLFB_QPA[rlfb_qpa]/QPAttention[qp_att1]/__mul___0|OUTPUT/FakeQuantize" type="FakeQuantize" version="opset1">
			<data levels="256" auto_broadcast="numpy" />
			<input>
				<port id="0" precision="FP32">
					<dim>8</dim>
					<dim>48</dim>
					<dim>1352</dim>
					<dim>2040</dim>
				</port>
				<port id="1" precision="FP32">
					<dim>1</dim>
					<dim>1</dim>
					<dim>1</dim>
					<dim>1</dim>
				</port>
				<port id="2" precision="FP32">
					<dim>1</dim>
					<dim>1</dim>
					<dim>1</dim>
					<dim>1</dim>
				</port>
				<port id="3" precision="FP32">
					<dim>1</dim>
					<dim>1</dim>
					<dim>1</dim>
					<dim>1</dim>
				</port>
				<port id="4" precision="FP32">
					<dim>1</dim>
					<dim>1</dim>
					<dim>1</dim>
					<dim>1</dim>
				</port>
			</input>
			<output>
				<port id="5" precision="FP32" names="/rlfb_qpa/qp_att1/Generator/RLFB_QPA[rlfb_qpa]/QPAttention[qp_att1]/__mul___0|OUTPUT/FakeQuantize_output_0">
					<dim>8</dim>
					<dim>48</dim>
					<dim>1352</dim>
					<dim>2040</dim>
				</port>
			</output>
		</layer>
		<layer id="122" name="rlfb_qpa.liner_beta.weight" type="Const" version="opset1">
			<data element_type="i8" shape="48, 1" offset="88524" size="48" />
			<output>
				<port id="0" precision="I8">
					<dim>48</dim>
					<dim>1</dim>
				</port>
			</output>
		</layer>
		<layer id="123" name="Convert_7019" type="Convert" version="opset1">
			<data destination_type="f32" />
			<input>
				<port id="0" precision="I8">
					<dim>48</dim>
					<dim>1</dim>
				</port>
			</input>
			<output>
				<port id="1" precision="FP32">
					<dim>48</dim>
					<dim>1</dim>
				</port>
			</output>
		</layer>
		<layer id="124" name="Constant_6956" type="Const" version="opset1">
			<data element_type="f32" shape="48, 1" offset="88572" size="192" />
			<output>
				<port id="0" precision="FP32">
					<dim>48</dim>
					<dim>1</dim>
				</port>
			</output>
		</layer>
		<layer id="125" name="/rlfb_qpa/liner_beta/pre_ops.0/op/FakeQuantize" type="Multiply" version="opset1">
			<data auto_broadcast="numpy" />
			<input>
				<port id="0" precision="FP32">
					<dim>48</dim>
					<dim>1</dim>
				</port>
				<port id="1" precision="FP32">
					<dim>48</dim>
					<dim>1</dim>
				</port>
			</input>
			<output>
				<port id="2" precision="FP32" names="/rlfb_qpa/liner_beta/pre_ops.0/op/FakeQuantize_output_0">
					<dim>48</dim>
					<dim>1</dim>
				</port>
			</output>
		</layer>
		<layer id="126" name="/rlfb_qpa/liner_beta/Gemm/WithoutBiases" type="MatMul" version="opset1">
			<data transpose_a="false" transpose_b="true" />
			<input>
				<port id="0" precision="FP32">
					<dim>8</dim>
					<dim>1</dim>
				</port>
				<port id="1" precision="FP32">
					<dim>48</dim>
					<dim>1</dim>
				</port>
			</input>
			<output>
				<port id="2" precision="FP32">
					<dim>8</dim>
					<dim>48</dim>
				</port>
			</output>
		</layer>
		<layer id="127" name="Constant_5843" type="Const" version="opset1">
			<data element_type="f32" shape="1, 48" offset="88764" size="192" />
			<output>
				<port id="0" precision="FP32">
					<dim>1</dim>
					<dim>48</dim>
				</port>
			</output>
		</layer>
		<layer id="128" name="/rlfb_qpa/liner_beta/Gemm" type="Add" version="opset1">
			<data auto_broadcast="numpy" />
			<input>
				<port id="0" precision="FP32">
					<dim>8</dim>
					<dim>48</dim>
				</port>
				<port id="1" precision="FP32">
					<dim>1</dim>
					<dim>48</dim>
				</port>
			</input>
			<output>
				<port id="2" precision="FP32" names="/rlfb_qpa/liner_beta/Gemm_output_0">
					<dim>8</dim>
					<dim>48</dim>
				</port>
			</output>
		</layer>
		<layer id="129" name="Constant_5844" type="Const" version="opset1">
			<data element_type="f32" shape="1, 1" offset="88956" size="4" />
			<output>
				<port id="0" precision="FP32">
					<dim>1</dim>
					<dim>1</dim>
				</port>
			</output>
		</layer>
		<layer id="130" name="Constant_5845" type="Const" version="opset1">
			<data element_type="f32" shape="1, 1" offset="88960" size="4" />
			<output>
				<port id="0" precision="FP32">
					<dim>1</dim>
					<dim>1</dim>
				</port>
			</output>
		</layer>
		<layer id="131" name="Constant_5846" type="Const" version="opset1">
			<data element_type="f32" shape="1, 1" offset="88956" size="4" />
			<output>
				<port id="0" precision="FP32">
					<dim>1</dim>
					<dim>1</dim>
				</port>
			</output>
		</layer>
		<layer id="132" name="Constant_5847" type="Const" version="opset1">
			<data element_type="f32" shape="1, 1" offset="88960" size="4" />
			<output>
				<port id="0" precision="FP32">
					<dim>1</dim>
					<dim>1</dim>
				</port>
			</output>
		</layer>
		<layer id="133" name="/rlfb_qpa/liner_beta/Generator/RLFB_QPA[rlfb_qpa]/NNCFLinear[liner_beta]/linear_0|OUTPUT/FakeQuantize" type="FakeQuantize" version="opset1">
			<data levels="256" auto_broadcast="numpy" />
			<input>
				<port id="0" precision="FP32">
					<dim>8</dim>
					<dim>48</dim>
				</port>
				<port id="1" precision="FP32">
					<dim>1</dim>
					<dim>1</dim>
				</port>
				<port id="2" precision="FP32">
					<dim>1</dim>
					<dim>1</dim>
				</port>
				<port id="3" precision="FP32">
					<dim>1</dim>
					<dim>1</dim>
				</port>
				<port id="4" precision="FP32">
					<dim>1</dim>
					<dim>1</dim>
				</port>
			</input>
			<output>
				<port id="5" precision="FP32" names="/rlfb_qpa/liner_beta/Generator/RLFB_QPA[rlfb_qpa]/NNCFLinear[liner_beta]/linear_0|OUTPUT/FakeQuantize_output_0">
					<dim>8</dim>
					<dim>48</dim>
				</port>
			</output>
		</layer>
		<layer id="134" name="/rlfb_qpa/qp_att1/Constant_2" type="Const" version="opset1">
			<data element_type="i64" shape="1" offset="67380" size="8" />
			<output>
				<port id="0" precision="I64" names="/rlfb_qpa/qp_att1/Constant_2_output_0">
					<dim>1</dim>
				</port>
			</output>
		</layer>
		<layer id="135" name="/rlfb_qpa/qp_att1/Unsqueeze_2" type="Unsqueeze" version="opset1">
			<input>
				<port id="0" precision="FP32">
					<dim>8</dim>
					<dim>48</dim>
				</port>
				<port id="1" precision="I64">
					<dim>1</dim>
				</port>
			</input>
			<output>
				<port id="2" precision="FP32" names="/rlfb_qpa/qp_att1/Unsqueeze_2_output_0">
					<dim>8</dim>
					<dim>48</dim>
					<dim>1</dim>
				</port>
			</output>
		</layer>
		<layer id="136" name="/rlfb_qpa/qp_att1/Constant_3" type="Const" version="opset1">
			<data element_type="i64" shape="1" offset="67380" size="8" />
			<output>
				<port id="0" precision="I64" names="/rlfb_qpa/qp_att1/Constant_3_output_0">
					<dim>1</dim>
				</port>
			</output>
		</layer>
		<layer id="137" name="/rlfb_qpa/qp_att1/Unsqueeze_3" type="Unsqueeze" version="opset1">
			<input>
				<port id="0" precision="FP32">
					<dim>8</dim>
					<dim>48</dim>
					<dim>1</dim>
				</port>
				<port id="1" precision="I64">
					<dim>1</dim>
				</port>
			</input>
			<output>
				<port id="2" precision="FP32" names="/rlfb_qpa/qp_att1/Unsqueeze_3_output_0">
					<dim>8</dim>
					<dim>48</dim>
					<dim>1</dim>
					<dim>1</dim>
				</port>
			</output>
		</layer>
		<layer id="138" name="/rlfb_qpa/qp_att1/Add" type="Add" version="opset1">
			<data auto_broadcast="numpy" />
			<input>
				<port id="0" precision="FP32">
					<dim>8</dim>
					<dim>48</dim>
					<dim>1352</dim>
					<dim>2040</dim>
				</port>
				<port id="1" precision="FP32">
					<dim>8</dim>
					<dim>48</dim>
					<dim>1</dim>
					<dim>1</dim>
				</port>
			</input>
			<output>
				<port id="2" precision="FP32" names="/rlfb_qpa/qp_att1/Add_output_0">
					<dim>8</dim>
					<dim>48</dim>
					<dim>1352</dim>
					<dim>2040</dim>
				</port>
			</output>
		</layer>
		<layer id="139" name="Constant_5848" type="Const" version="opset1">
			<data element_type="f32" shape="1, 1, 1, 1" offset="88964" size="4" />
			<output>
				<port id="0" precision="FP32">
					<dim>1</dim>
					<dim>1</dim>
					<dim>1</dim>
					<dim>1</dim>
				</port>
			</output>
		</layer>
		<layer id="140" name="Constant_5849" type="Const" version="opset1">
			<data element_type="f32" shape="1, 1, 1, 1" offset="88968" size="4" />
			<output>
				<port id="0" precision="FP32">
					<dim>1</dim>
					<dim>1</dim>
					<dim>1</dim>
					<dim>1</dim>
				</port>
			</output>
		</layer>
		<layer id="141" name="Constant_5850" type="Const" version="opset1">
			<data element_type="f32" shape="1, 1, 1, 1" offset="88964" size="4" />
			<output>
				<port id="0" precision="FP32">
					<dim>1</dim>
					<dim>1</dim>
					<dim>1</dim>
					<dim>1</dim>
				</port>
			</output>
		</layer>
		<layer id="142" name="Constant_5851" type="Const" version="opset1">
			<data element_type="f32" shape="1, 1, 1, 1" offset="88968" size="4" />
			<output>
				<port id="0" precision="FP32">
					<dim>1</dim>
					<dim>1</dim>
					<dim>1</dim>
					<dim>1</dim>
				</port>
			</output>
		</layer>
		<layer id="143" name="/rlfb_qpa/qp_att1/Generator/RLFB_QPA[rlfb_qpa]/QPAttention[qp_att1]/__add___0|OUTPUT/FakeQuantize" type="FakeQuantize" version="opset1">
			<data levels="256" auto_broadcast="numpy" />
			<input>
				<port id="0" precision="FP32">
					<dim>8</dim>
					<dim>48</dim>
					<dim>1352</dim>
					<dim>2040</dim>
				</port>
				<port id="1" precision="FP32">
					<dim>1</dim>
					<dim>1</dim>
					<dim>1</dim>
					<dim>1</dim>
				</port>
				<port id="2" precision="FP32">
					<dim>1</dim>
					<dim>1</dim>
					<dim>1</dim>
					<dim>1</dim>
				</port>
				<port id="3" precision="FP32">
					<dim>1</dim>
					<dim>1</dim>
					<dim>1</dim>
					<dim>1</dim>
				</port>
				<port id="4" precision="FP32">
					<dim>1</dim>
					<dim>1</dim>
					<dim>1</dim>
					<dim>1</dim>
				</port>
			</input>
			<output>
				<port id="5" precision="FP32" names="/rlfb_qpa/qp_att1/Generator/RLFB_QPA[rlfb_qpa]/QPAttention[qp_att1]/__add___0|OUTPUT/FakeQuantize_output_0">
					<dim>8</dim>
					<dim>48</dim>
					<dim>1352</dim>
					<dim>2040</dim>
				</port>
			</output>
		</layer>
		<layer id="144" name="/rlfb_qpa/qp_att1/Add_1" type="Add" version="opset1">
			<data auto_broadcast="numpy" />
			<input>
				<port id="0" precision="FP32">
					<dim>8</dim>
					<dim>48</dim>
					<dim>1352</dim>
					<dim>2040</dim>
				</port>
				<port id="1" precision="FP32">
					<dim>8</dim>
					<dim>48</dim>
					<dim>1352</dim>
					<dim>2040</dim>
				</port>
			</input>
			<output>
				<port id="2" precision="FP32" names="/rlfb_qpa/qp_att1/Add_1_output_0">
					<dim>8</dim>
					<dim>48</dim>
					<dim>1352</dim>
					<dim>2040</dim>
				</port>
			</output>
		</layer>
		<layer id="145" name="Constant_5852" type="Const" version="opset1">
			<data element_type="f32" shape="1, 1, 1, 1" offset="88972" size="4" />
			<output>
				<port id="0" precision="FP32">
					<dim>1</dim>
					<dim>1</dim>
					<dim>1</dim>
					<dim>1</dim>
				</port>
			</output>
		</layer>
		<layer id="146" name="Constant_5853" type="Const" version="opset1">
			<data element_type="f32" shape="1, 1, 1, 1" offset="88976" size="4" />
			<output>
				<port id="0" precision="FP32">
					<dim>1</dim>
					<dim>1</dim>
					<dim>1</dim>
					<dim>1</dim>
				</port>
			</output>
		</layer>
		<layer id="147" name="Constant_5854" type="Const" version="opset1">
			<data element_type="f32" shape="1, 1, 1, 1" offset="88972" size="4" />
			<output>
				<port id="0" precision="FP32">
					<dim>1</dim>
					<dim>1</dim>
					<dim>1</dim>
					<dim>1</dim>
				</port>
			</output>
		</layer>
		<layer id="148" name="Constant_5855" type="Const" version="opset1">
			<data element_type="f32" shape="1, 1, 1, 1" offset="88976" size="4" />
			<output>
				<port id="0" precision="FP32">
					<dim>1</dim>
					<dim>1</dim>
					<dim>1</dim>
					<dim>1</dim>
				</port>
			</output>
		</layer>
		<layer id="149" name="/rlfb_qpa/qp_att1/Generator/RLFB_QPA[rlfb_qpa]/QPAttention[qp_att1]/__add___1|OUTPUT/FakeQuantize" type="FakeQuantize" version="opset1">
			<data levels="256" auto_broadcast="numpy" />
			<input>
				<port id="0" precision="FP32">
					<dim>8</dim>
					<dim>48</dim>
					<dim>1352</dim>
					<dim>2040</dim>
				</port>
				<port id="1" precision="FP32">
					<dim>1</dim>
					<dim>1</dim>
					<dim>1</dim>
					<dim>1</dim>
				</port>
				<port id="2" precision="FP32">
					<dim>1</dim>
					<dim>1</dim>
					<dim>1</dim>
					<dim>1</dim>
				</port>
				<port id="3" precision="FP32">
					<dim>1</dim>
					<dim>1</dim>
					<dim>1</dim>
					<dim>1</dim>
				</port>
				<port id="4" precision="FP32">
					<dim>1</dim>
					<dim>1</dim>
					<dim>1</dim>
					<dim>1</dim>
				</port>
			</input>
			<output>
				<port id="5" precision="FP32" names="/rlfb_qpa/qp_att1/Generator/RLFB_QPA[rlfb_qpa]/QPAttention[qp_att1]/__add___1|OUTPUT/FakeQuantize_output_0">
					<dim>8</dim>
					<dim>48</dim>
					<dim>1352</dim>
					<dim>2040</dim>
				</port>
			</output>
		</layer>
		<layer id="150" name="rlfb_qpa.RLFB2.0.c1_r.weight" type="Const" version="opset1">
			<data element_type="i8" shape="48, 48, 3, 3" offset="88980" size="20736" />
			<output>
				<port id="0" precision="I8">
					<dim>48</dim>
					<dim>48</dim>
					<dim>3</dim>
					<dim>3</dim>
				</port>
			</output>
		</layer>
		<layer id="151" name="Convert_7140" type="Convert" version="opset1">
			<data destination_type="f32" />
			<input>
				<port id="0" precision="I8">
					<dim>48</dim>
					<dim>48</dim>
					<dim>3</dim>
					<dim>3</dim>
				</port>
			</input>
			<output>
				<port id="1" precision="FP32">
					<dim>48</dim>
					<dim>48</dim>
					<dim>3</dim>
					<dim>3</dim>
				</port>
			</output>
		</layer>
		<layer id="152" name="Constant_7077" type="Const" version="opset1">
			<data element_type="f32" shape="48, 1, 1, 1" offset="109716" size="192" />
			<output>
				<port id="0" precision="FP32">
					<dim>48</dim>
					<dim>1</dim>
					<dim>1</dim>
					<dim>1</dim>
				</port>
			</output>
		</layer>
		<layer id="153" name="/rlfb_qpa/RLFB2/RLFB2.0/c1_r/pre_ops.0/op/FakeQuantize" type="Multiply" version="opset1">
			<data auto_broadcast="numpy" />
			<input>
				<port id="0" precision="FP32">
					<dim>48</dim>
					<dim>48</dim>
					<dim>3</dim>
					<dim>3</dim>
				</port>
				<port id="1" precision="FP32">
					<dim>48</dim>
					<dim>1</dim>
					<dim>1</dim>
					<dim>1</dim>
				</port>
			</input>
			<output>
				<port id="2" precision="FP32" names="/rlfb_qpa/RLFB2/RLFB2.0/c1_r/pre_ops.0/op/FakeQuantize_output_0">
					<dim>48</dim>
					<dim>48</dim>
					<dim>3</dim>
					<dim>3</dim>
				</port>
			</output>
		</layer>
		<layer id="154" name="/rlfb_qpa/RLFB2/RLFB2.0/c1_r/Conv/WithoutBiases" type="Convolution" version="opset1">
			<data strides="1, 1" dilations="1, 1" pads_begin="1, 1" pads_end="1, 1" auto_pad="explicit" />
			<input>
				<port id="0" precision="FP32">
					<dim>8</dim>
					<dim>48</dim>
					<dim>1352</dim>
					<dim>2040</dim>
				</port>
				<port id="1" precision="FP32">
					<dim>48</dim>
					<dim>48</dim>
					<dim>3</dim>
					<dim>3</dim>
				</port>
			</input>
			<output>
				<port id="2" precision="FP32">
					<dim>8</dim>
					<dim>48</dim>
					<dim>1352</dim>
					<dim>2040</dim>
				</port>
			</output>
		</layer>
		<layer id="155" name="Reshape_482" type="Const" version="opset1">
			<data element_type="f32" shape="1, 48, 1, 1" offset="109908" size="192" />
			<output>
				<port id="0" precision="FP32">
					<dim>1</dim>
					<dim>48</dim>
					<dim>1</dim>
					<dim>1</dim>
				</port>
			</output>
		</layer>
		<layer id="156" name="/rlfb_qpa/RLFB2/RLFB2.0/c1_r/Conv" type="Add" version="opset1">
			<data auto_broadcast="numpy" />
			<input>
				<port id="0" precision="FP32">
					<dim>8</dim>
					<dim>48</dim>
					<dim>1352</dim>
					<dim>2040</dim>
				</port>
				<port id="1" precision="FP32">
					<dim>1</dim>
					<dim>48</dim>
					<dim>1</dim>
					<dim>1</dim>
				</port>
			</input>
			<output>
				<port id="2" precision="FP32" names="/rlfb_qpa/RLFB2/RLFB2.0/c1_r/Conv_output_0">
					<dim>8</dim>
					<dim>48</dim>
					<dim>1352</dim>
					<dim>2040</dim>
				</port>
			</output>
		</layer>
		<layer id="157" name="Constant_510" type="Const" version="opset1">
			<data element_type="f32" shape="1" offset="21956" size="4" />
			<output>
				<port id="0" precision="FP32">
					<dim>1</dim>
				</port>
			</output>
		</layer>
		<layer id="158" name="/rlfb_qpa/RLFB2/RLFB2.0/act/LeakyRelu" type="PReLU" version="opset1">
			<input>
				<port id="0" precision="FP32">
					<dim>8</dim>
					<dim>48</dim>
					<dim>1352</dim>
					<dim>2040</dim>
				</port>
				<port id="1" precision="FP32">
					<dim>1</dim>
				</port>
			</input>
			<output>
				<port id="2" precision="FP32" names="/rlfb_qpa/RLFB2/RLFB2.0/act/LeakyRelu_output_0">
					<dim>8</dim>
					<dim>48</dim>
					<dim>1352</dim>
					<dim>2040</dim>
				</port>
			</output>
		</layer>
		<layer id="159" name="Constant_5856" type="Const" version="opset1">
			<data element_type="f32" shape="1, 1, 1, 1" offset="110100" size="4" />
			<output>
				<port id="0" precision="FP32">
					<dim>1</dim>
					<dim>1</dim>
					<dim>1</dim>
					<dim>1</dim>
				</port>
			</output>
		</layer>
		<layer id="160" name="Constant_5857" type="Const" version="opset1">
			<data element_type="f32" shape="1, 1, 1, 1" offset="110104" size="4" />
			<output>
				<port id="0" precision="FP32">
					<dim>1</dim>
					<dim>1</dim>
					<dim>1</dim>
					<dim>1</dim>
				</port>
			</output>
		</layer>
		<layer id="161" name="Constant_5858" type="Const" version="opset1">
			<data element_type="f32" shape="1, 1, 1, 1" offset="110100" size="4" />
			<output>
				<port id="0" precision="FP32">
					<dim>1</dim>
					<dim>1</dim>
					<dim>1</dim>
					<dim>1</dim>
				</port>
			</output>
		</layer>
		<layer id="162" name="Constant_5859" type="Const" version="opset1">
			<data element_type="f32" shape="1, 1, 1, 1" offset="110104" size="4" />
			<output>
				<port id="0" precision="FP32">
					<dim>1</dim>
					<dim>1</dim>
					<dim>1</dim>
					<dim>1</dim>
				</port>
			</output>
		</layer>
		<layer id="163" name="/rlfb_qpa/RLFB2/RLFB2.0/act/Generator/RLFB_QPA[rlfb_qpa]/Sequential[RLFB2]/RLFB[0]/LeakyReLU[act]/leaky_relu_0|OUTPUT/FakeQuantize" type="FakeQuantize" version="opset1">
			<data levels="256" auto_broadcast="numpy" />
			<input>
				<port id="0" precision="FP32">
					<dim>8</dim>
					<dim>48</dim>
					<dim>1352</dim>
					<dim>2040</dim>
				</port>
				<port id="1" precision="FP32">
					<dim>1</dim>
					<dim>1</dim>
					<dim>1</dim>
					<dim>1</dim>
				</port>
				<port id="2" precision="FP32">
					<dim>1</dim>
					<dim>1</dim>
					<dim>1</dim>
					<dim>1</dim>
				</port>
				<port id="3" precision="FP32">
					<dim>1</dim>
					<dim>1</dim>
					<dim>1</dim>
					<dim>1</dim>
				</port>
				<port id="4" precision="FP32">
					<dim>1</dim>
					<dim>1</dim>
					<dim>1</dim>
					<dim>1</dim>
				</port>
			</input>
			<output>
				<port id="5" precision="FP32" names="/rlfb_qpa/RLFB2/RLFB2.0/act/Generator/RLFB_QPA[rlfb_qpa]/Sequential[RLFB2]/RLFB[0]/LeakyReLU[act]/leaky_relu_0|OUTPUT/FakeQuantize_output_0">
					<dim>8</dim>
					<dim>48</dim>
					<dim>1352</dim>
					<dim>2040</dim>
				</port>
			</output>
		</layer>
		<layer id="164" name="rlfb_qpa.RLFB2.0.c2_r.weight" type="Const" version="opset1">
			<data element_type="i8" shape="48, 48, 3, 3" offset="110108" size="20736" />
			<output>
				<port id="0" precision="I8">
					<dim>48</dim>
					<dim>48</dim>
					<dim>3</dim>
					<dim>3</dim>
				</port>
			</output>
		</layer>
		<layer id="165" name="Convert_7261" type="Convert" version="opset1">
			<data destination_type="f32" />
			<input>
				<port id="0" precision="I8">
					<dim>48</dim>
					<dim>48</dim>
					<dim>3</dim>
					<dim>3</dim>
				</port>
			</input>
			<output>
				<port id="1" precision="FP32">
					<dim>48</dim>
					<dim>48</dim>
					<dim>3</dim>
					<dim>3</dim>
				</port>
			</output>
		</layer>
		<layer id="166" name="Constant_7198" type="Const" version="opset1">
			<data element_type="f32" shape="48, 1, 1, 1" offset="130844" size="192" />
			<output>
				<port id="0" precision="FP32">
					<dim>48</dim>
					<dim>1</dim>
					<dim>1</dim>
					<dim>1</dim>
				</port>
			</output>
		</layer>
		<layer id="167" name="/rlfb_qpa/RLFB2/RLFB2.0/c2_r/pre_ops.0/op/FakeQuantize" type="Multiply" version="opset1">
			<data auto_broadcast="numpy" />
			<input>
				<port id="0" precision="FP32">
					<dim>48</dim>
					<dim>48</dim>
					<dim>3</dim>
					<dim>3</dim>
				</port>
				<port id="1" precision="FP32">
					<dim>48</dim>
					<dim>1</dim>
					<dim>1</dim>
					<dim>1</dim>
				</port>
			</input>
			<output>
				<port id="2" precision="FP32" names="/rlfb_qpa/RLFB2/RLFB2.0/c2_r/pre_ops.0/op/FakeQuantize_output_0">
					<dim>48</dim>
					<dim>48</dim>
					<dim>3</dim>
					<dim>3</dim>
				</port>
			</output>
		</layer>
		<layer id="168" name="/rlfb_qpa/RLFB2/RLFB2.0/c2_r/Conv/WithoutBiases" type="Convolution" version="opset1">
			<data strides="1, 1" dilations="1, 1" pads_begin="1, 1" pads_end="1, 1" auto_pad="explicit" />
			<input>
				<port id="0" precision="FP32">
					<dim>8</dim>
					<dim>48</dim>
					<dim>1352</dim>
					<dim>2040</dim>
				</port>
				<port id="1" precision="FP32">
					<dim>48</dim>
					<dim>48</dim>
					<dim>3</dim>
					<dim>3</dim>
				</port>
			</input>
			<output>
				<port id="2" precision="FP32">
					<dim>8</dim>
					<dim>48</dim>
					<dim>1352</dim>
					<dim>2040</dim>
				</port>
			</output>
		</layer>
		<layer id="169" name="Reshape_538" type="Const" version="opset1">
			<data element_type="f32" shape="1, 48, 1, 1" offset="131036" size="192" />
			<output>
				<port id="0" precision="FP32">
					<dim>1</dim>
					<dim>48</dim>
					<dim>1</dim>
					<dim>1</dim>
				</port>
			</output>
		</layer>
		<layer id="170" name="/rlfb_qpa/RLFB2/RLFB2.0/c2_r/Conv" type="Add" version="opset1">
			<data auto_broadcast="numpy" />
			<input>
				<port id="0" precision="FP32">
					<dim>8</dim>
					<dim>48</dim>
					<dim>1352</dim>
					<dim>2040</dim>
				</port>
				<port id="1" precision="FP32">
					<dim>1</dim>
					<dim>48</dim>
					<dim>1</dim>
					<dim>1</dim>
				</port>
			</input>
			<output>
				<port id="2" precision="FP32" names="/rlfb_qpa/RLFB2/RLFB2.0/c2_r/Conv_output_0">
					<dim>8</dim>
					<dim>48</dim>
					<dim>1352</dim>
					<dim>2040</dim>
				</port>
			</output>
		</layer>
		<layer id="171" name="Constant_566" type="Const" version="opset1">
			<data element_type="f32" shape="1" offset="21956" size="4" />
			<output>
				<port id="0" precision="FP32">
					<dim>1</dim>
				</port>
			</output>
		</layer>
		<layer id="172" name="/rlfb_qpa/RLFB2/RLFB2.0/act_1/LeakyRelu" type="PReLU" version="opset1">
			<input>
				<port id="0" precision="FP32">
					<dim>8</dim>
					<dim>48</dim>
					<dim>1352</dim>
					<dim>2040</dim>
				</port>
				<port id="1" precision="FP32">
					<dim>1</dim>
				</port>
			</input>
			<output>
				<port id="2" precision="FP32" names="/rlfb_qpa/RLFB2/RLFB2.0/act_1/LeakyRelu_output_0">
					<dim>8</dim>
					<dim>48</dim>
					<dim>1352</dim>
					<dim>2040</dim>
				</port>
			</output>
		</layer>
		<layer id="173" name="Constant_5860" type="Const" version="opset1">
			<data element_type="f32" shape="1, 1, 1, 1" offset="131228" size="4" />
			<output>
				<port id="0" precision="FP32">
					<dim>1</dim>
					<dim>1</dim>
					<dim>1</dim>
					<dim>1</dim>
				</port>
			</output>
		</layer>
		<layer id="174" name="Constant_5861" type="Const" version="opset1">
			<data element_type="f32" shape="1, 1, 1, 1" offset="131232" size="4" />
			<output>
				<port id="0" precision="FP32">
					<dim>1</dim>
					<dim>1</dim>
					<dim>1</dim>
					<dim>1</dim>
				</port>
			</output>
		</layer>
		<layer id="175" name="Constant_5862" type="Const" version="opset1">
			<data element_type="f32" shape="1, 1, 1, 1" offset="131228" size="4" />
			<output>
				<port id="0" precision="FP32">
					<dim>1</dim>
					<dim>1</dim>
					<dim>1</dim>
					<dim>1</dim>
				</port>
			</output>
		</layer>
		<layer id="176" name="Constant_5863" type="Const" version="opset1">
			<data element_type="f32" shape="1, 1, 1, 1" offset="131232" size="4" />
			<output>
				<port id="0" precision="FP32">
					<dim>1</dim>
					<dim>1</dim>
					<dim>1</dim>
					<dim>1</dim>
				</port>
			</output>
		</layer>
		<layer id="177" name="/rlfb_qpa/RLFB2/RLFB2.0/act/Generator/RLFB_QPA[rlfb_qpa]/Sequential[RLFB2]/RLFB[0]/LeakyReLU[act]/leaky_relu_1|OUTPUT/FakeQuantize" type="FakeQuantize" version="opset1">
			<data levels="256" auto_broadcast="numpy" />
			<input>
				<port id="0" precision="FP32">
					<dim>8</dim>
					<dim>48</dim>
					<dim>1352</dim>
					<dim>2040</dim>
				</port>
				<port id="1" precision="FP32">
					<dim>1</dim>
					<dim>1</dim>
					<dim>1</dim>
					<dim>1</dim>
				</port>
				<port id="2" precision="FP32">
					<dim>1</dim>
					<dim>1</dim>
					<dim>1</dim>
					<dim>1</dim>
				</port>
				<port id="3" precision="FP32">
					<dim>1</dim>
					<dim>1</dim>
					<dim>1</dim>
					<dim>1</dim>
				</port>
				<port id="4" precision="FP32">
					<dim>1</dim>
					<dim>1</dim>
					<dim>1</dim>
					<dim>1</dim>
				</port>
			</input>
			<output>
				<port id="5" precision="FP32" names="/rlfb_qpa/RLFB2/RLFB2.0/act/Generator/RLFB_QPA[rlfb_qpa]/Sequential[RLFB2]/RLFB[0]/LeakyReLU[act]/leaky_relu_1|OUTPUT/FakeQuantize_output_0">
					<dim>8</dim>
					<dim>48</dim>
					<dim>1352</dim>
					<dim>2040</dim>
				</port>
			</output>
		</layer>
		<layer id="178" name="rlfb_qpa.RLFB2.0.c3_r.weight" type="Const" version="opset1">
			<data element_type="i8" shape="48, 48, 3, 3" offset="131236" size="20736" />
			<output>
				<port id="0" precision="I8">
					<dim>48</dim>
					<dim>48</dim>
					<dim>3</dim>
					<dim>3</dim>
				</port>
			</output>
		</layer>
		<layer id="179" name="Convert_7382" type="Convert" version="opset1">
			<data destination_type="f32" />
			<input>
				<port id="0" precision="I8">
					<dim>48</dim>
					<dim>48</dim>
					<dim>3</dim>
					<dim>3</dim>
				</port>
			</input>
			<output>
				<port id="1" precision="FP32">
					<dim>48</dim>
					<dim>48</dim>
					<dim>3</dim>
					<dim>3</dim>
				</port>
			</output>
		</layer>
		<layer id="180" name="Constant_7319" type="Const" version="opset1">
			<data element_type="f32" shape="48, 1, 1, 1" offset="151972" size="192" />
			<output>
				<port id="0" precision="FP32">
					<dim>48</dim>
					<dim>1</dim>
					<dim>1</dim>
					<dim>1</dim>
				</port>
			</output>
		</layer>
		<layer id="181" name="/rlfb_qpa/RLFB2/RLFB2.0/c3_r/pre_ops.0/op/FakeQuantize" type="Multiply" version="opset1">
			<data auto_broadcast="numpy" />
			<input>
				<port id="0" precision="FP32">
					<dim>48</dim>
					<dim>48</dim>
					<dim>3</dim>
					<dim>3</dim>
				</port>
				<port id="1" precision="FP32">
					<dim>48</dim>
					<dim>1</dim>
					<dim>1</dim>
					<dim>1</dim>
				</port>
			</input>
			<output>
				<port id="2" precision="FP32" names="/rlfb_qpa/RLFB2/RLFB2.0/c3_r/pre_ops.0/op/FakeQuantize_output_0">
					<dim>48</dim>
					<dim>48</dim>
					<dim>3</dim>
					<dim>3</dim>
				</port>
			</output>
		</layer>
		<layer id="182" name="/rlfb_qpa/RLFB2/RLFB2.0/c3_r/Conv/WithoutBiases" type="Convolution" version="opset1">
			<data strides="1, 1" dilations="1, 1" pads_begin="1, 1" pads_end="1, 1" auto_pad="explicit" />
			<input>
				<port id="0" precision="FP32">
					<dim>8</dim>
					<dim>48</dim>
					<dim>1352</dim>
					<dim>2040</dim>
				</port>
				<port id="1" precision="FP32">
					<dim>48</dim>
					<dim>48</dim>
					<dim>3</dim>
					<dim>3</dim>
				</port>
			</input>
			<output>
				<port id="2" precision="FP32">
					<dim>8</dim>
					<dim>48</dim>
					<dim>1352</dim>
					<dim>2040</dim>
				</port>
			</output>
		</layer>
		<layer id="183" name="Reshape_594" type="Const" version="opset1">
			<data element_type="f32" shape="1, 48, 1, 1" offset="152164" size="192" />
			<output>
				<port id="0" precision="FP32">
					<dim>1</dim>
					<dim>48</dim>
					<dim>1</dim>
					<dim>1</dim>
				</port>
			</output>
		</layer>
		<layer id="184" name="/rlfb_qpa/RLFB2/RLFB2.0/c3_r/Conv" type="Add" version="opset1">
			<data auto_broadcast="numpy" />
			<input>
				<port id="0" precision="FP32">
					<dim>8</dim>
					<dim>48</dim>
					<dim>1352</dim>
					<dim>2040</dim>
				</port>
				<port id="1" precision="FP32">
					<dim>1</dim>
					<dim>48</dim>
					<dim>1</dim>
					<dim>1</dim>
				</port>
			</input>
			<output>
				<port id="2" precision="FP32" names="/rlfb_qpa/RLFB2/RLFB2.0/c3_r/Conv_output_0">
					<dim>8</dim>
					<dim>48</dim>
					<dim>1352</dim>
					<dim>2040</dim>
				</port>
			</output>
		</layer>
		<layer id="185" name="Constant_622" type="Const" version="opset1">
			<data element_type="f32" shape="1" offset="21956" size="4" />
			<output>
				<port id="0" precision="FP32">
					<dim>1</dim>
				</port>
			</output>
		</layer>
		<layer id="186" name="/rlfb_qpa/RLFB2/RLFB2.0/act_2/LeakyRelu" type="PReLU" version="opset1">
			<input>
				<port id="0" precision="FP32">
					<dim>8</dim>
					<dim>48</dim>
					<dim>1352</dim>
					<dim>2040</dim>
				</port>
				<port id="1" precision="FP32">
					<dim>1</dim>
				</port>
			</input>
			<output>
				<port id="2" precision="FP32" names="/rlfb_qpa/RLFB2/RLFB2.0/act_2/LeakyRelu_output_0">
					<dim>8</dim>
					<dim>48</dim>
					<dim>1352</dim>
					<dim>2040</dim>
				</port>
			</output>
		</layer>
		<layer id="187" name="Constant_5864" type="Const" version="opset1">
			<data element_type="f32" shape="1, 1, 1, 1" offset="152356" size="4" />
			<output>
				<port id="0" precision="FP32">
					<dim>1</dim>
					<dim>1</dim>
					<dim>1</dim>
					<dim>1</dim>
				</port>
			</output>
		</layer>
		<layer id="188" name="Constant_5865" type="Const" version="opset1">
			<data element_type="f32" shape="1, 1, 1, 1" offset="152360" size="4" />
			<output>
				<port id="0" precision="FP32">
					<dim>1</dim>
					<dim>1</dim>
					<dim>1</dim>
					<dim>1</dim>
				</port>
			</output>
		</layer>
		<layer id="189" name="Constant_5866" type="Const" version="opset1">
			<data element_type="f32" shape="1, 1, 1, 1" offset="152356" size="4" />
			<output>
				<port id="0" precision="FP32">
					<dim>1</dim>
					<dim>1</dim>
					<dim>1</dim>
					<dim>1</dim>
				</port>
			</output>
		</layer>
		<layer id="190" name="Constant_5867" type="Const" version="opset1">
			<data element_type="f32" shape="1, 1, 1, 1" offset="152360" size="4" />
			<output>
				<port id="0" precision="FP32">
					<dim>1</dim>
					<dim>1</dim>
					<dim>1</dim>
					<dim>1</dim>
				</port>
			</output>
		</layer>
		<layer id="191" name="/rlfb_qpa/RLFB2/RLFB2.0/act/Generator/RLFB_QPA[rlfb_qpa]/Sequential[RLFB2]/RLFB[0]/LeakyReLU[act]/leaky_relu_2|OUTPUT/FakeQuantize" type="FakeQuantize" version="opset1">
			<data levels="256" auto_broadcast="numpy" />
			<input>
				<port id="0" precision="FP32">
					<dim>8</dim>
					<dim>48</dim>
					<dim>1352</dim>
					<dim>2040</dim>
				</port>
				<port id="1" precision="FP32">
					<dim>1</dim>
					<dim>1</dim>
					<dim>1</dim>
					<dim>1</dim>
				</port>
				<port id="2" precision="FP32">
					<dim>1</dim>
					<dim>1</dim>
					<dim>1</dim>
					<dim>1</dim>
				</port>
				<port id="3" precision="FP32">
					<dim>1</dim>
					<dim>1</dim>
					<dim>1</dim>
					<dim>1</dim>
				</port>
				<port id="4" precision="FP32">
					<dim>1</dim>
					<dim>1</dim>
					<dim>1</dim>
					<dim>1</dim>
				</port>
			</input>
			<output>
				<port id="5" precision="FP32" names="/rlfb_qpa/RLFB2/RLFB2.0/act/Generator/RLFB_QPA[rlfb_qpa]/Sequential[RLFB2]/RLFB[0]/LeakyReLU[act]/leaky_relu_2|OUTPUT/FakeQuantize_output_0">
					<dim>8</dim>
					<dim>48</dim>
					<dim>1352</dim>
					<dim>2040</dim>
				</port>
			</output>
		</layer>
		<layer id="192" name="/rlfb_qpa/RLFB2/RLFB2.0/Add" type="Add" version="opset1">
			<data auto_broadcast="numpy" />
			<input>
				<port id="0" precision="FP32">
					<dim>8</dim>
					<dim>48</dim>
					<dim>1352</dim>
					<dim>2040</dim>
				</port>
				<port id="1" precision="FP32">
					<dim>8</dim>
					<dim>48</dim>
					<dim>1352</dim>
					<dim>2040</dim>
				</port>
			</input>
			<output>
				<port id="2" precision="FP32" names="/rlfb_qpa/RLFB2/RLFB2.0/Add_output_0">
					<dim>8</dim>
					<dim>48</dim>
					<dim>1352</dim>
					<dim>2040</dim>
				</port>
			</output>
		</layer>
		<layer id="193" name="Constant_5868" type="Const" version="opset1">
			<data element_type="f32" shape="1, 1, 1, 1" offset="152364" size="4" />
			<output>
				<port id="0" precision="FP32">
					<dim>1</dim>
					<dim>1</dim>
					<dim>1</dim>
					<dim>1</dim>
				</port>
			</output>
		</layer>
		<layer id="194" name="Constant_5869" type="Const" version="opset1">
			<data element_type="f32" shape="1, 1, 1, 1" offset="152368" size="4" />
			<output>
				<port id="0" precision="FP32">
					<dim>1</dim>
					<dim>1</dim>
					<dim>1</dim>
					<dim>1</dim>
				</port>
			</output>
		</layer>
		<layer id="195" name="Constant_5870" type="Const" version="opset1">
			<data element_type="f32" shape="1, 1, 1, 1" offset="152364" size="4" />
			<output>
				<port id="0" precision="FP32">
					<dim>1</dim>
					<dim>1</dim>
					<dim>1</dim>
					<dim>1</dim>
				</port>
			</output>
		</layer>
		<layer id="196" name="Constant_5871" type="Const" version="opset1">
			<data element_type="f32" shape="1, 1, 1, 1" offset="152368" size="4" />
			<output>
				<port id="0" precision="FP32">
					<dim>1</dim>
					<dim>1</dim>
					<dim>1</dim>
					<dim>1</dim>
				</port>
			</output>
		</layer>
		<layer id="197" name="/rlfb_qpa/RLFB2/RLFB2.0/Generator/RLFB_QPA[rlfb_qpa]/Sequential[RLFB2]/RLFB[0]/__add___0|OUTPUT/FakeQuantize" type="FakeQuantize" version="opset1">
			<data levels="256" auto_broadcast="numpy" />
			<input>
				<port id="0" precision="FP32">
					<dim>8</dim>
					<dim>48</dim>
					<dim>1352</dim>
					<dim>2040</dim>
				</port>
				<port id="1" precision="FP32">
					<dim>1</dim>
					<dim>1</dim>
					<dim>1</dim>
					<dim>1</dim>
				</port>
				<port id="2" precision="FP32">
					<dim>1</dim>
					<dim>1</dim>
					<dim>1</dim>
					<dim>1</dim>
				</port>
				<port id="3" precision="FP32">
					<dim>1</dim>
					<dim>1</dim>
					<dim>1</dim>
					<dim>1</dim>
				</port>
				<port id="4" precision="FP32">
					<dim>1</dim>
					<dim>1</dim>
					<dim>1</dim>
					<dim>1</dim>
				</port>
			</input>
			<output>
				<port id="5" precision="FP32" names="/rlfb_qpa/RLFB2/RLFB2.0/Generator/RLFB_QPA[rlfb_qpa]/Sequential[RLFB2]/RLFB[0]/__add___0|OUTPUT/FakeQuantize_output_0">
					<dim>8</dim>
					<dim>48</dim>
					<dim>1352</dim>
					<dim>2040</dim>
				</port>
			</output>
		</layer>
		<layer id="198" name="rlfb_qpa.RLFB2.0.c5.weight" type="Const" version="opset1">
			<data element_type="i8" shape="48, 48, 1, 1" offset="152372" size="2304" />
			<output>
				<port id="0" precision="I8">
					<dim>48</dim>
					<dim>48</dim>
					<dim>1</dim>
					<dim>1</dim>
				</port>
			</output>
		</layer>
		<layer id="199" name="Convert_7503" type="Convert" version="opset1">
			<data destination_type="f32" />
			<input>
				<port id="0" precision="I8">
					<dim>48</dim>
					<dim>48</dim>
					<dim>1</dim>
					<dim>1</dim>
				</port>
			</input>
			<output>
				<port id="1" precision="FP32">
					<dim>48</dim>
					<dim>48</dim>
					<dim>1</dim>
					<dim>1</dim>
				</port>
			</output>
		</layer>
		<layer id="200" name="Constant_7440" type="Const" version="opset1">
			<data element_type="f32" shape="48, 1, 1, 1" offset="154676" size="192" />
			<output>
				<port id="0" precision="FP32">
					<dim>48</dim>
					<dim>1</dim>
					<dim>1</dim>
					<dim>1</dim>
				</port>
			</output>
		</layer>
		<layer id="201" name="/rlfb_qpa/RLFB2/RLFB2.0/c5/pre_ops.0/op/FakeQuantize" type="Multiply" version="opset1">
			<data auto_broadcast="numpy" />
			<input>
				<port id="0" precision="FP32">
					<dim>48</dim>
					<dim>48</dim>
					<dim>1</dim>
					<dim>1</dim>
				</port>
				<port id="1" precision="FP32">
					<dim>48</dim>
					<dim>1</dim>
					<dim>1</dim>
					<dim>1</dim>
				</port>
			</input>
			<output>
				<port id="2" precision="FP32" names="/rlfb_qpa/RLFB2/RLFB2.0/c5/pre_ops.0/op/FakeQuantize_output_0">
					<dim>48</dim>
					<dim>48</dim>
					<dim>1</dim>
					<dim>1</dim>
				</port>
			</output>
		</layer>
		<layer id="202" name="/rlfb_qpa/RLFB2/RLFB2.0/c5/Conv/WithoutBiases" type="Convolution" version="opset1">
			<data strides="1, 1" dilations="1, 1" pads_begin="0, 0" pads_end="0, 0" auto_pad="explicit" />
			<input>
				<port id="0" precision="FP32">
					<dim>8</dim>
					<dim>48</dim>
					<dim>1352</dim>
					<dim>2040</dim>
				</port>
				<port id="1" precision="FP32">
					<dim>48</dim>
					<dim>48</dim>
					<dim>1</dim>
					<dim>1</dim>
				</port>
			</input>
			<output>
				<port id="2" precision="FP32">
					<dim>8</dim>
					<dim>48</dim>
					<dim>1352</dim>
					<dim>2040</dim>
				</port>
			</output>
		</layer>
		<layer id="203" name="Reshape_654" type="Const" version="opset1">
			<data element_type="f32" shape="1, 48, 1, 1" offset="154868" size="192" />
			<output>
				<port id="0" precision="FP32">
					<dim>1</dim>
					<dim>48</dim>
					<dim>1</dim>
					<dim>1</dim>
				</port>
			</output>
		</layer>
		<layer id="204" name="/rlfb_qpa/RLFB2/RLFB2.0/c5/Conv" type="Add" version="opset1">
			<data auto_broadcast="numpy" />
			<input>
				<port id="0" precision="FP32">
					<dim>8</dim>
					<dim>48</dim>
					<dim>1352</dim>
					<dim>2040</dim>
				</port>
				<port id="1" precision="FP32">
					<dim>1</dim>
					<dim>48</dim>
					<dim>1</dim>
					<dim>1</dim>
				</port>
			</input>
			<output>
				<port id="2" precision="FP32" names="/rlfb_qpa/RLFB2/RLFB2.0/c5/Conv_output_0">
					<dim>8</dim>
					<dim>48</dim>
					<dim>1352</dim>
					<dim>2040</dim>
				</port>
			</output>
		</layer>
		<layer id="205" name="Constant_5872" type="Const" version="opset1">
			<data element_type="f32" shape="1, 1, 1, 1" offset="155060" size="4" />
			<output>
				<port id="0" precision="FP32">
					<dim>1</dim>
					<dim>1</dim>
					<dim>1</dim>
					<dim>1</dim>
				</port>
			</output>
		</layer>
		<layer id="206" name="Constant_5873" type="Const" version="opset1">
			<data element_type="f32" shape="1, 1, 1, 1" offset="155064" size="4" />
			<output>
				<port id="0" precision="FP32">
					<dim>1</dim>
					<dim>1</dim>
					<dim>1</dim>
					<dim>1</dim>
				</port>
			</output>
		</layer>
		<layer id="207" name="Constant_5874" type="Const" version="opset1">
			<data element_type="f32" shape="1, 1, 1, 1" offset="155060" size="4" />
			<output>
				<port id="0" precision="FP32">
					<dim>1</dim>
					<dim>1</dim>
					<dim>1</dim>
					<dim>1</dim>
				</port>
			</output>
		</layer>
		<layer id="208" name="Constant_5875" type="Const" version="opset1">
			<data element_type="f32" shape="1, 1, 1, 1" offset="155064" size="4" />
			<output>
				<port id="0" precision="FP32">
					<dim>1</dim>
					<dim>1</dim>
					<dim>1</dim>
					<dim>1</dim>
				</port>
			</output>
		</layer>
		<layer id="209" name="/rlfb_qpa/RLFB2/RLFB2.0/c5/Generator/RLFB_QPA[rlfb_qpa]/Sequential[RLFB2]/RLFB[0]/NNCFConv2d[c5]/conv2d_0|OUTPUT/FakeQuantize" type="FakeQuantize" version="opset1">
			<data levels="256" auto_broadcast="numpy" />
			<input>
				<port id="0" precision="FP32">
					<dim>8</dim>
					<dim>48</dim>
					<dim>1352</dim>
					<dim>2040</dim>
				</port>
				<port id="1" precision="FP32">
					<dim>1</dim>
					<dim>1</dim>
					<dim>1</dim>
					<dim>1</dim>
				</port>
				<port id="2" precision="FP32">
					<dim>1</dim>
					<dim>1</dim>
					<dim>1</dim>
					<dim>1</dim>
				</port>
				<port id="3" precision="FP32">
					<dim>1</dim>
					<dim>1</dim>
					<dim>1</dim>
					<dim>1</dim>
				</port>
				<port id="4" precision="FP32">
					<dim>1</dim>
					<dim>1</dim>
					<dim>1</dim>
					<dim>1</dim>
				</port>
			</input>
			<output>
				<port id="5" precision="FP32" names="/rlfb_qpa/RLFB2/RLFB2.0/c5/Generator/RLFB_QPA[rlfb_qpa]/Sequential[RLFB2]/RLFB[0]/NNCFConv2d[c5]/conv2d_0|OUTPUT/FakeQuantize_output_0">
					<dim>8</dim>
					<dim>48</dim>
					<dim>1352</dim>
					<dim>2040</dim>
				</port>
			</output>
		</layer>
		<layer id="210" name="rlfb_qpa.qp_att2.res.weight" type="Const" version="opset1">
			<data element_type="i8" shape="48, 48, 3, 3" offset="155068" size="20736" />
			<output>
				<port id="0" precision="I8">
					<dim>48</dim>
					<dim>48</dim>
					<dim>3</dim>
					<dim>3</dim>
				</port>
			</output>
		</layer>
		<layer id="211" name="Convert_7624" type="Convert" version="opset1">
			<data destination_type="f32" />
			<input>
				<port id="0" precision="I8">
					<dim>48</dim>
					<dim>48</dim>
					<dim>3</dim>
					<dim>3</dim>
				</port>
			</input>
			<output>
				<port id="1" precision="FP32">
					<dim>48</dim>
					<dim>48</dim>
					<dim>3</dim>
					<dim>3</dim>
				</port>
			</output>
		</layer>
		<layer id="212" name="Constant_7561" type="Const" version="opset1">
			<data element_type="f32" shape="48, 1, 1, 1" offset="175804" size="192" />
			<output>
				<port id="0" precision="FP32">
					<dim>48</dim>
					<dim>1</dim>
					<dim>1</dim>
					<dim>1</dim>
				</port>
			</output>
		</layer>
		<layer id="213" name="/rlfb_qpa/qp_att2/res/pre_ops.0/op/FakeQuantize" type="Multiply" version="opset1">
			<data auto_broadcast="numpy" />
			<input>
				<port id="0" precision="FP32">
					<dim>48</dim>
					<dim>48</dim>
					<dim>3</dim>
					<dim>3</dim>
				</port>
				<port id="1" precision="FP32">
					<dim>48</dim>
					<dim>1</dim>
					<dim>1</dim>
					<dim>1</dim>
				</port>
			</input>
			<output>
				<port id="2" precision="FP32" names="/rlfb_qpa/qp_att2/res/pre_ops.0/op/FakeQuantize_output_0">
					<dim>48</dim>
					<dim>48</dim>
					<dim>3</dim>
					<dim>3</dim>
				</port>
			</output>
		</layer>
		<layer id="214" name="/rlfb_qpa/qp_att2/res/Conv/WithoutBiases" type="Convolution" version="opset1">
			<data strides="1, 1" dilations="1, 1" pads_begin="1, 1" pads_end="1, 1" auto_pad="explicit" />
			<input>
				<port id="0" precision="FP32">
					<dim>8</dim>
					<dim>48</dim>
					<dim>1352</dim>
					<dim>2040</dim>
				</port>
				<port id="1" precision="FP32">
					<dim>48</dim>
					<dim>48</dim>
					<dim>3</dim>
					<dim>3</dim>
				</port>
			</input>
			<output>
				<port id="2" precision="FP32">
					<dim>8</dim>
					<dim>48</dim>
					<dim>1352</dim>
					<dim>2040</dim>
				</port>
			</output>
		</layer>
		<layer id="215" name="Reshape_708" type="Const" version="opset1">
			<data element_type="f32" shape="1, 48, 1, 1" offset="175996" size="192" />
			<output>
				<port id="0" precision="FP32">
					<dim>1</dim>
					<dim>48</dim>
					<dim>1</dim>
					<dim>1</dim>
				</port>
			</output>
		</layer>
		<layer id="216" name="/rlfb_qpa/qp_att2/res/Conv" type="Add" version="opset1">
			<data auto_broadcast="numpy" />
			<input>
				<port id="0" precision="FP32">
					<dim>8</dim>
					<dim>48</dim>
					<dim>1352</dim>
					<dim>2040</dim>
				</port>
				<port id="1" precision="FP32">
					<dim>1</dim>
					<dim>48</dim>
					<dim>1</dim>
					<dim>1</dim>
				</port>
			</input>
			<output>
				<port id="2" precision="FP32" names="/rlfb_qpa/qp_att2/res/Conv_output_0">
					<dim>8</dim>
					<dim>48</dim>
					<dim>1352</dim>
					<dim>2040</dim>
				</port>
			</output>
		</layer>
		<layer id="217" name="Constant_5876" type="Const" version="opset1">
			<data element_type="f32" shape="1, 1, 1, 1" offset="176188" size="4" />
			<output>
				<port id="0" precision="FP32">
					<dim>1</dim>
					<dim>1</dim>
					<dim>1</dim>
					<dim>1</dim>
				</port>
			</output>
		</layer>
		<layer id="218" name="Constant_5877" type="Const" version="opset1">
			<data element_type="f32" shape="1, 1, 1, 1" offset="176192" size="4" />
			<output>
				<port id="0" precision="FP32">
					<dim>1</dim>
					<dim>1</dim>
					<dim>1</dim>
					<dim>1</dim>
				</port>
			</output>
		</layer>
		<layer id="219" name="Constant_5878" type="Const" version="opset1">
			<data element_type="f32" shape="1, 1, 1, 1" offset="176188" size="4" />
			<output>
				<port id="0" precision="FP32">
					<dim>1</dim>
					<dim>1</dim>
					<dim>1</dim>
					<dim>1</dim>
				</port>
			</output>
		</layer>
		<layer id="220" name="Constant_5879" type="Const" version="opset1">
			<data element_type="f32" shape="1, 1, 1, 1" offset="176192" size="4" />
			<output>
				<port id="0" precision="FP32">
					<dim>1</dim>
					<dim>1</dim>
					<dim>1</dim>
					<dim>1</dim>
				</port>
			</output>
		</layer>
		<layer id="221" name="/rlfb_qpa/qp_att2/res/Generator/RLFB_QPA[rlfb_qpa]/QPAttention[qp_att2]/NNCFConv2d[res]/conv2d_0|OUTPUT/FakeQuantize" type="FakeQuantize" version="opset1">
			<data levels="256" auto_broadcast="numpy" />
			<input>
				<port id="0" precision="FP32">
					<dim>8</dim>
					<dim>48</dim>
					<dim>1352</dim>
					<dim>2040</dim>
				</port>
				<port id="1" precision="FP32">
					<dim>1</dim>
					<dim>1</dim>
					<dim>1</dim>
					<dim>1</dim>
				</port>
				<port id="2" precision="FP32">
					<dim>1</dim>
					<dim>1</dim>
					<dim>1</dim>
					<dim>1</dim>
				</port>
				<port id="3" precision="FP32">
					<dim>1</dim>
					<dim>1</dim>
					<dim>1</dim>
					<dim>1</dim>
				</port>
				<port id="4" precision="FP32">
					<dim>1</dim>
					<dim>1</dim>
					<dim>1</dim>
					<dim>1</dim>
				</port>
			</input>
			<output>
				<port id="5" precision="FP32" names="/rlfb_qpa/qp_att2/res/Generator/RLFB_QPA[rlfb_qpa]/QPAttention[qp_att2]/NNCFConv2d[res]/conv2d_0|OUTPUT/FakeQuantize_output_0">
					<dim>8</dim>
					<dim>48</dim>
					<dim>1352</dim>
					<dim>2040</dim>
				</port>
			</output>
		</layer>
		<layer id="222" name="/rlfb_qpa/qp_att2/Mul" type="Multiply" version="opset1">
			<data auto_broadcast="numpy" />
			<input>
				<port id="0" precision="FP32">
					<dim>8</dim>
					<dim>48</dim>
					<dim>1</dim>
					<dim>1</dim>
				</port>
				<port id="1" precision="FP32">
					<dim>8</dim>
					<dim>48</dim>
					<dim>1352</dim>
					<dim>2040</dim>
				</port>
			</input>
			<output>
				<port id="2" precision="FP32" names="/rlfb_qpa/qp_att2/Mul_output_0">
					<dim>8</dim>
					<dim>48</dim>
					<dim>1352</dim>
					<dim>2040</dim>
				</port>
			</output>
		</layer>
		<layer id="223" name="Constant_5880" type="Const" version="opset1">
			<data element_type="f32" shape="1, 1, 1, 1" offset="176196" size="4" />
			<output>
				<port id="0" precision="FP32">
					<dim>1</dim>
					<dim>1</dim>
					<dim>1</dim>
					<dim>1</dim>
				</port>
			</output>
		</layer>
		<layer id="224" name="Constant_5881" type="Const" version="opset1">
			<data element_type="f32" shape="1, 1, 1, 1" offset="176200" size="4" />
			<output>
				<port id="0" precision="FP32">
					<dim>1</dim>
					<dim>1</dim>
					<dim>1</dim>
					<dim>1</dim>
				</port>
			</output>
		</layer>
		<layer id="225" name="Constant_5882" type="Const" version="opset1">
			<data element_type="f32" shape="1, 1, 1, 1" offset="176196" size="4" />
			<output>
				<port id="0" precision="FP32">
					<dim>1</dim>
					<dim>1</dim>
					<dim>1</dim>
					<dim>1</dim>
				</port>
			</output>
		</layer>
		<layer id="226" name="Constant_5883" type="Const" version="opset1">
			<data element_type="f32" shape="1, 1, 1, 1" offset="176200" size="4" />
			<output>
				<port id="0" precision="FP32">
					<dim>1</dim>
					<dim>1</dim>
					<dim>1</dim>
					<dim>1</dim>
				</port>
			</output>
		</layer>
		<layer id="227" name="/rlfb_qpa/qp_att2/Generator/RLFB_QPA[rlfb_qpa]/QPAttention[qp_att2]/__mul___0|OUTPUT/FakeQuantize" type="FakeQuantize" version="opset1">
			<data levels="256" auto_broadcast="numpy" />
			<input>
				<port id="0" precision="FP32">
					<dim>8</dim>
					<dim>48</dim>
					<dim>1352</dim>
					<dim>2040</dim>
				</port>
				<port id="1" precision="FP32">
					<dim>1</dim>
					<dim>1</dim>
					<dim>1</dim>
					<dim>1</dim>
				</port>
				<port id="2" precision="FP32">
					<dim>1</dim>
					<dim>1</dim>
					<dim>1</dim>
					<dim>1</dim>
				</port>
				<port id="3" precision="FP32">
					<dim>1</dim>
					<dim>1</dim>
					<dim>1</dim>
					<dim>1</dim>
				</port>
				<port id="4" precision="FP32">
					<dim>1</dim>
					<dim>1</dim>
					<dim>1</dim>
					<dim>1</dim>
				</port>
			</input>
			<output>
				<port id="5" precision="FP32" names="/rlfb_qpa/qp_att2/Generator/RLFB_QPA[rlfb_qpa]/QPAttention[qp_att2]/__mul___0|OUTPUT/FakeQuantize_output_0">
					<dim>8</dim>
					<dim>48</dim>
					<dim>1352</dim>
					<dim>2040</dim>
				</port>
			</output>
		</layer>
		<layer id="228" name="/rlfb_qpa/qp_att2/Add" type="Add" version="opset1">
			<data auto_broadcast="numpy" />
			<input>
				<port id="0" precision="FP32">
					<dim>8</dim>
					<dim>48</dim>
					<dim>1352</dim>
					<dim>2040</dim>
				</port>
				<port id="1" precision="FP32">
					<dim>8</dim>
					<dim>48</dim>
					<dim>1</dim>
					<dim>1</dim>
				</port>
			</input>
			<output>
				<port id="2" precision="FP32" names="/rlfb_qpa/qp_att2/Add_output_0">
					<dim>8</dim>
					<dim>48</dim>
					<dim>1352</dim>
					<dim>2040</dim>
				</port>
			</output>
		</layer>
		<layer id="229" name="Constant_5884" type="Const" version="opset1">
			<data element_type="f32" shape="1, 1, 1, 1" offset="176204" size="4" />
			<output>
				<port id="0" precision="FP32">
					<dim>1</dim>
					<dim>1</dim>
					<dim>1</dim>
					<dim>1</dim>
				</port>
			</output>
		</layer>
		<layer id="230" name="Constant_5885" type="Const" version="opset1">
			<data element_type="f32" shape="1, 1, 1, 1" offset="176208" size="4" />
			<output>
				<port id="0" precision="FP32">
					<dim>1</dim>
					<dim>1</dim>
					<dim>1</dim>
					<dim>1</dim>
				</port>
			</output>
		</layer>
		<layer id="231" name="Constant_5886" type="Const" version="opset1">
			<data element_type="f32" shape="1, 1, 1, 1" offset="176204" size="4" />
			<output>
				<port id="0" precision="FP32">
					<dim>1</dim>
					<dim>1</dim>
					<dim>1</dim>
					<dim>1</dim>
				</port>
			</output>
		</layer>
		<layer id="232" name="Constant_5887" type="Const" version="opset1">
			<data element_type="f32" shape="1, 1, 1, 1" offset="176208" size="4" />
			<output>
				<port id="0" precision="FP32">
					<dim>1</dim>
					<dim>1</dim>
					<dim>1</dim>
					<dim>1</dim>
				</port>
			</output>
		</layer>
		<layer id="233" name="/rlfb_qpa/qp_att2/Generator/RLFB_QPA[rlfb_qpa]/QPAttention[qp_att2]/__add___0|OUTPUT/FakeQuantize" type="FakeQuantize" version="opset1">
			<data levels="256" auto_broadcast="numpy" />
			<input>
				<port id="0" precision="FP32">
					<dim>8</dim>
					<dim>48</dim>
					<dim>1352</dim>
					<dim>2040</dim>
				</port>
				<port id="1" precision="FP32">
					<dim>1</dim>
					<dim>1</dim>
					<dim>1</dim>
					<dim>1</dim>
				</port>
				<port id="2" precision="FP32">
					<dim>1</dim>
					<dim>1</dim>
					<dim>1</dim>
					<dim>1</dim>
				</port>
				<port id="3" precision="FP32">
					<dim>1</dim>
					<dim>1</dim>
					<dim>1</dim>
					<dim>1</dim>
				</port>
				<port id="4" precision="FP32">
					<dim>1</dim>
					<dim>1</dim>
					<dim>1</dim>
					<dim>1</dim>
				</port>
			</input>
			<output>
				<port id="5" precision="FP32" names="/rlfb_qpa/qp_att2/Generator/RLFB_QPA[rlfb_qpa]/QPAttention[qp_att2]/__add___0|OUTPUT/FakeQuantize_output_0">
					<dim>8</dim>
					<dim>48</dim>
					<dim>1352</dim>
					<dim>2040</dim>
				</port>
			</output>
		</layer>
		<layer id="234" name="/rlfb_qpa/qp_att2/Add_1" type="Add" version="opset1">
			<data auto_broadcast="numpy" />
			<input>
				<port id="0" precision="FP32">
					<dim>8</dim>
					<dim>48</dim>
					<dim>1352</dim>
					<dim>2040</dim>
				</port>
				<port id="1" precision="FP32">
					<dim>8</dim>
					<dim>48</dim>
					<dim>1352</dim>
					<dim>2040</dim>
				</port>
			</input>
			<output>
				<port id="2" precision="FP32" names="/rlfb_qpa/qp_att2/Add_1_output_0">
					<dim>8</dim>
					<dim>48</dim>
					<dim>1352</dim>
					<dim>2040</dim>
				</port>
			</output>
		</layer>
		<layer id="235" name="Constant_5888" type="Const" version="opset1">
			<data element_type="f32" shape="1, 1, 1, 1" offset="176212" size="4" />
			<output>
				<port id="0" precision="FP32">
					<dim>1</dim>
					<dim>1</dim>
					<dim>1</dim>
					<dim>1</dim>
				</port>
			</output>
		</layer>
		<layer id="236" name="Constant_5889" type="Const" version="opset1">
			<data element_type="f32" shape="1, 1, 1, 1" offset="176216" size="4" />
			<output>
				<port id="0" precision="FP32">
					<dim>1</dim>
					<dim>1</dim>
					<dim>1</dim>
					<dim>1</dim>
				</port>
			</output>
		</layer>
		<layer id="237" name="Constant_5890" type="Const" version="opset1">
			<data element_type="f32" shape="1, 1, 1, 1" offset="176212" size="4" />
			<output>
				<port id="0" precision="FP32">
					<dim>1</dim>
					<dim>1</dim>
					<dim>1</dim>
					<dim>1</dim>
				</port>
			</output>
		</layer>
		<layer id="238" name="Constant_5891" type="Const" version="opset1">
			<data element_type="f32" shape="1, 1, 1, 1" offset="176216" size="4" />
			<output>
				<port id="0" precision="FP32">
					<dim>1</dim>
					<dim>1</dim>
					<dim>1</dim>
					<dim>1</dim>
				</port>
			</output>
		</layer>
		<layer id="239" name="/rlfb_qpa/qp_att2/Generator/RLFB_QPA[rlfb_qpa]/QPAttention[qp_att2]/__add___1|OUTPUT/FakeQuantize" type="FakeQuantize" version="opset1">
			<data levels="256" auto_broadcast="numpy" />
			<input>
				<port id="0" precision="FP32">
					<dim>8</dim>
					<dim>48</dim>
					<dim>1352</dim>
					<dim>2040</dim>
				</port>
				<port id="1" precision="FP32">
					<dim>1</dim>
					<dim>1</dim>
					<dim>1</dim>
					<dim>1</dim>
				</port>
				<port id="2" precision="FP32">
					<dim>1</dim>
					<dim>1</dim>
					<dim>1</dim>
					<dim>1</dim>
				</port>
				<port id="3" precision="FP32">
					<dim>1</dim>
					<dim>1</dim>
					<dim>1</dim>
					<dim>1</dim>
				</port>
				<port id="4" precision="FP32">
					<dim>1</dim>
					<dim>1</dim>
					<dim>1</dim>
					<dim>1</dim>
				</port>
			</input>
			<output>
				<port id="5" precision="FP32" names="/rlfb_qpa/qp_att2/Generator/RLFB_QPA[rlfb_qpa]/QPAttention[qp_att2]/__add___1|OUTPUT/FakeQuantize_output_0">
					<dim>8</dim>
					<dim>48</dim>
					<dim>1352</dim>
					<dim>2040</dim>
				</port>
			</output>
		</layer>
		<layer id="240" name="rlfb_qpa.RLFB3.0.c1_r.weight" type="Const" version="opset1">
			<data element_type="i8" shape="48, 48, 3, 3" offset="176220" size="20736" />
			<output>
				<port id="0" precision="I8">
					<dim>48</dim>
					<dim>48</dim>
					<dim>3</dim>
					<dim>3</dim>
				</port>
			</output>
		</layer>
		<layer id="241" name="Convert_7745" type="Convert" version="opset1">
			<data destination_type="f32" />
			<input>
				<port id="0" precision="I8">
					<dim>48</dim>
					<dim>48</dim>
					<dim>3</dim>
					<dim>3</dim>
				</port>
			</input>
			<output>
				<port id="1" precision="FP32">
					<dim>48</dim>
					<dim>48</dim>
					<dim>3</dim>
					<dim>3</dim>
				</port>
			</output>
		</layer>
		<layer id="242" name="Constant_7682" type="Const" version="opset1">
			<data element_type="f32" shape="48, 1, 1, 1" offset="196956" size="192" />
			<output>
				<port id="0" precision="FP32">
					<dim>48</dim>
					<dim>1</dim>
					<dim>1</dim>
					<dim>1</dim>
				</port>
			</output>
		</layer>
		<layer id="243" name="/rlfb_qpa/RLFB3/RLFB3.0/c1_r/pre_ops.0/op/FakeQuantize" type="Multiply" version="opset1">
			<data auto_broadcast="numpy" />
			<input>
				<port id="0" precision="FP32">
					<dim>48</dim>
					<dim>48</dim>
					<dim>3</dim>
					<dim>3</dim>
				</port>
				<port id="1" precision="FP32">
					<dim>48</dim>
					<dim>1</dim>
					<dim>1</dim>
					<dim>1</dim>
				</port>
			</input>
			<output>
				<port id="2" precision="FP32" names="/rlfb_qpa/RLFB3/RLFB3.0/c1_r/pre_ops.0/op/FakeQuantize_output_0">
					<dim>48</dim>
					<dim>48</dim>
					<dim>3</dim>
					<dim>3</dim>
				</port>
			</output>
		</layer>
		<layer id="244" name="/rlfb_qpa/RLFB3/RLFB3.0/c1_r/Conv/WithoutBiases" type="Convolution" version="opset1">
			<data strides="1, 1" dilations="1, 1" pads_begin="1, 1" pads_end="1, 1" auto_pad="explicit" />
			<input>
				<port id="0" precision="FP32">
					<dim>8</dim>
					<dim>48</dim>
					<dim>1352</dim>
					<dim>2040</dim>
				</port>
				<port id="1" precision="FP32">
					<dim>48</dim>
					<dim>48</dim>
					<dim>3</dim>
					<dim>3</dim>
				</port>
			</input>
			<output>
				<port id="2" precision="FP32">
					<dim>8</dim>
					<dim>48</dim>
					<dim>1352</dim>
					<dim>2040</dim>
				</port>
			</output>
		</layer>
		<layer id="245" name="Reshape_774" type="Const" version="opset1">
			<data element_type="f32" shape="1, 48, 1, 1" offset="197148" size="192" />
			<output>
				<port id="0" precision="FP32">
					<dim>1</dim>
					<dim>48</dim>
					<dim>1</dim>
					<dim>1</dim>
				</port>
			</output>
		</layer>
		<layer id="246" name="/rlfb_qpa/RLFB3/RLFB3.0/c1_r/Conv" type="Add" version="opset1">
			<data auto_broadcast="numpy" />
			<input>
				<port id="0" precision="FP32">
					<dim>8</dim>
					<dim>48</dim>
					<dim>1352</dim>
					<dim>2040</dim>
				</port>
				<port id="1" precision="FP32">
					<dim>1</dim>
					<dim>48</dim>
					<dim>1</dim>
					<dim>1</dim>
				</port>
			</input>
			<output>
				<port id="2" precision="FP32" names="/rlfb_qpa/RLFB3/RLFB3.0/c1_r/Conv_output_0">
					<dim>8</dim>
					<dim>48</dim>
					<dim>1352</dim>
					<dim>2040</dim>
				</port>
			</output>
		</layer>
		<layer id="247" name="Constant_802" type="Const" version="opset1">
			<data element_type="f32" shape="1" offset="21956" size="4" />
			<output>
				<port id="0" precision="FP32">
					<dim>1</dim>
				</port>
			</output>
		</layer>
		<layer id="248" name="/rlfb_qpa/RLFB3/RLFB3.0/act/LeakyRelu" type="PReLU" version="opset1">
			<input>
				<port id="0" precision="FP32">
					<dim>8</dim>
					<dim>48</dim>
					<dim>1352</dim>
					<dim>2040</dim>
				</port>
				<port id="1" precision="FP32">
					<dim>1</dim>
				</port>
			</input>
			<output>
				<port id="2" precision="FP32" names="/rlfb_qpa/RLFB3/RLFB3.0/act/LeakyRelu_output_0">
					<dim>8</dim>
					<dim>48</dim>
					<dim>1352</dim>
					<dim>2040</dim>
				</port>
			</output>
		</layer>
		<layer id="249" name="Constant_5892" type="Const" version="opset1">
			<data element_type="f32" shape="1, 1, 1, 1" offset="197340" size="4" />
			<output>
				<port id="0" precision="FP32">
					<dim>1</dim>
					<dim>1</dim>
					<dim>1</dim>
					<dim>1</dim>
				</port>
			</output>
		</layer>
		<layer id="250" name="Constant_5893" type="Const" version="opset1">
			<data element_type="f32" shape="1, 1, 1, 1" offset="197344" size="4" />
			<output>
				<port id="0" precision="FP32">
					<dim>1</dim>
					<dim>1</dim>
					<dim>1</dim>
					<dim>1</dim>
				</port>
			</output>
		</layer>
		<layer id="251" name="Constant_5894" type="Const" version="opset1">
			<data element_type="f32" shape="1, 1, 1, 1" offset="197340" size="4" />
			<output>
				<port id="0" precision="FP32">
					<dim>1</dim>
					<dim>1</dim>
					<dim>1</dim>
					<dim>1</dim>
				</port>
			</output>
		</layer>
		<layer id="252" name="Constant_5895" type="Const" version="opset1">
			<data element_type="f32" shape="1, 1, 1, 1" offset="197344" size="4" />
			<output>
				<port id="0" precision="FP32">
					<dim>1</dim>
					<dim>1</dim>
					<dim>1</dim>
					<dim>1</dim>
				</port>
			</output>
		</layer>
		<layer id="253" name="/rlfb_qpa/RLFB3/RLFB3.0/act/Generator/RLFB_QPA[rlfb_qpa]/Sequential[RLFB3]/RLFB[0]/LeakyReLU[act]/leaky_relu_0|OUTPUT/FakeQuantize" type="FakeQuantize" version="opset1">
			<data levels="256" auto_broadcast="numpy" />
			<input>
				<port id="0" precision="FP32">
					<dim>8</dim>
					<dim>48</dim>
					<dim>1352</dim>
					<dim>2040</dim>
				</port>
				<port id="1" precision="FP32">
					<dim>1</dim>
					<dim>1</dim>
					<dim>1</dim>
					<dim>1</dim>
				</port>
				<port id="2" precision="FP32">
					<dim>1</dim>
					<dim>1</dim>
					<dim>1</dim>
					<dim>1</dim>
				</port>
				<port id="3" precision="FP32">
					<dim>1</dim>
					<dim>1</dim>
					<dim>1</dim>
					<dim>1</dim>
				</port>
				<port id="4" precision="FP32">
					<dim>1</dim>
					<dim>1</dim>
					<dim>1</dim>
					<dim>1</dim>
				</port>
			</input>
			<output>
				<port id="5" precision="FP32" names="/rlfb_qpa/RLFB3/RLFB3.0/act/Generator/RLFB_QPA[rlfb_qpa]/Sequential[RLFB3]/RLFB[0]/LeakyReLU[act]/leaky_relu_0|OUTPUT/FakeQuantize_output_0">
					<dim>8</dim>
					<dim>48</dim>
					<dim>1352</dim>
					<dim>2040</dim>
				</port>
			</output>
		</layer>
		<layer id="254" name="rlfb_qpa.RLFB3.0.c2_r.weight" type="Const" version="opset1">
			<data element_type="i8" shape="48, 48, 3, 3" offset="197348" size="20736" />
			<output>
				<port id="0" precision="I8">
					<dim>48</dim>
					<dim>48</dim>
					<dim>3</dim>
					<dim>3</dim>
				</port>
			</output>
		</layer>
		<layer id="255" name="Convert_7866" type="Convert" version="opset1">
			<data destination_type="f32" />
			<input>
				<port id="0" precision="I8">
					<dim>48</dim>
					<dim>48</dim>
					<dim>3</dim>
					<dim>3</dim>
				</port>
			</input>
			<output>
				<port id="1" precision="FP32">
					<dim>48</dim>
					<dim>48</dim>
					<dim>3</dim>
					<dim>3</dim>
				</port>
			</output>
		</layer>
		<layer id="256" name="Constant_7803" type="Const" version="opset1">
			<data element_type="f32" shape="48, 1, 1, 1" offset="218084" size="192" />
			<output>
				<port id="0" precision="FP32">
					<dim>48</dim>
					<dim>1</dim>
					<dim>1</dim>
					<dim>1</dim>
				</port>
			</output>
		</layer>
		<layer id="257" name="/rlfb_qpa/RLFB3/RLFB3.0/c2_r/pre_ops.0/op/FakeQuantize" type="Multiply" version="opset1">
			<data auto_broadcast="numpy" />
			<input>
				<port id="0" precision="FP32">
					<dim>48</dim>
					<dim>48</dim>
					<dim>3</dim>
					<dim>3</dim>
				</port>
				<port id="1" precision="FP32">
					<dim>48</dim>
					<dim>1</dim>
					<dim>1</dim>
					<dim>1</dim>
				</port>
			</input>
			<output>
				<port id="2" precision="FP32" names="/rlfb_qpa/RLFB3/RLFB3.0/c2_r/pre_ops.0/op/FakeQuantize_output_0">
					<dim>48</dim>
					<dim>48</dim>
					<dim>3</dim>
					<dim>3</dim>
				</port>
			</output>
		</layer>
		<layer id="258" name="/rlfb_qpa/RLFB3/RLFB3.0/c2_r/Conv/WithoutBiases" type="Convolution" version="opset1">
			<data strides="1, 1" dilations="1, 1" pads_begin="1, 1" pads_end="1, 1" auto_pad="explicit" />
			<input>
				<port id="0" precision="FP32">
					<dim>8</dim>
					<dim>48</dim>
					<dim>1352</dim>
					<dim>2040</dim>
				</port>
				<port id="1" precision="FP32">
					<dim>48</dim>
					<dim>48</dim>
					<dim>3</dim>
					<dim>3</dim>
				</port>
			</input>
			<output>
				<port id="2" precision="FP32">
					<dim>8</dim>
					<dim>48</dim>
					<dim>1352</dim>
					<dim>2040</dim>
				</port>
			</output>
		</layer>
		<layer id="259" name="Reshape_830" type="Const" version="opset1">
			<data element_type="f32" shape="1, 48, 1, 1" offset="218276" size="192" />
			<output>
				<port id="0" precision="FP32">
					<dim>1</dim>
					<dim>48</dim>
					<dim>1</dim>
					<dim>1</dim>
				</port>
			</output>
		</layer>
		<layer id="260" name="/rlfb_qpa/RLFB3/RLFB3.0/c2_r/Conv" type="Add" version="opset1">
			<data auto_broadcast="numpy" />
			<input>
				<port id="0" precision="FP32">
					<dim>8</dim>
					<dim>48</dim>
					<dim>1352</dim>
					<dim>2040</dim>
				</port>
				<port id="1" precision="FP32">
					<dim>1</dim>
					<dim>48</dim>
					<dim>1</dim>
					<dim>1</dim>
				</port>
			</input>
			<output>
				<port id="2" precision="FP32" names="/rlfb_qpa/RLFB3/RLFB3.0/c2_r/Conv_output_0">
					<dim>8</dim>
					<dim>48</dim>
					<dim>1352</dim>
					<dim>2040</dim>
				</port>
			</output>
		</layer>
		<layer id="261" name="Constant_858" type="Const" version="opset1">
			<data element_type="f32" shape="1" offset="21956" size="4" />
			<output>
				<port id="0" precision="FP32">
					<dim>1</dim>
				</port>
			</output>
		</layer>
		<layer id="262" name="/rlfb_qpa/RLFB3/RLFB3.0/act_1/LeakyRelu" type="PReLU" version="opset1">
			<input>
				<port id="0" precision="FP32">
					<dim>8</dim>
					<dim>48</dim>
					<dim>1352</dim>
					<dim>2040</dim>
				</port>
				<port id="1" precision="FP32">
					<dim>1</dim>
				</port>
			</input>
			<output>
				<port id="2" precision="FP32" names="/rlfb_qpa/RLFB3/RLFB3.0/act_1/LeakyRelu_output_0">
					<dim>8</dim>
					<dim>48</dim>
					<dim>1352</dim>
					<dim>2040</dim>
				</port>
			</output>
		</layer>
		<layer id="263" name="Constant_5896" type="Const" version="opset1">
			<data element_type="f32" shape="1, 1, 1, 1" offset="218468" size="4" />
			<output>
				<port id="0" precision="FP32">
					<dim>1</dim>
					<dim>1</dim>
					<dim>1</dim>
					<dim>1</dim>
				</port>
			</output>
		</layer>
		<layer id="264" name="Constant_5897" type="Const" version="opset1">
			<data element_type="f32" shape="1, 1, 1, 1" offset="218472" size="4" />
			<output>
				<port id="0" precision="FP32">
					<dim>1</dim>
					<dim>1</dim>
					<dim>1</dim>
					<dim>1</dim>
				</port>
			</output>
		</layer>
		<layer id="265" name="Constant_5898" type="Const" version="opset1">
			<data element_type="f32" shape="1, 1, 1, 1" offset="218468" size="4" />
			<output>
				<port id="0" precision="FP32">
					<dim>1</dim>
					<dim>1</dim>
					<dim>1</dim>
					<dim>1</dim>
				</port>
			</output>
		</layer>
		<layer id="266" name="Constant_5899" type="Const" version="opset1">
			<data element_type="f32" shape="1, 1, 1, 1" offset="218472" size="4" />
			<output>
				<port id="0" precision="FP32">
					<dim>1</dim>
					<dim>1</dim>
					<dim>1</dim>
					<dim>1</dim>
				</port>
			</output>
		</layer>
		<layer id="267" name="/rlfb_qpa/RLFB3/RLFB3.0/act/Generator/RLFB_QPA[rlfb_qpa]/Sequential[RLFB3]/RLFB[0]/LeakyReLU[act]/leaky_relu_1|OUTPUT/FakeQuantize" type="FakeQuantize" version="opset1">
			<data levels="256" auto_broadcast="numpy" />
			<input>
				<port id="0" precision="FP32">
					<dim>8</dim>
					<dim>48</dim>
					<dim>1352</dim>
					<dim>2040</dim>
				</port>
				<port id="1" precision="FP32">
					<dim>1</dim>
					<dim>1</dim>
					<dim>1</dim>
					<dim>1</dim>
				</port>
				<port id="2" precision="FP32">
					<dim>1</dim>
					<dim>1</dim>
					<dim>1</dim>
					<dim>1</dim>
				</port>
				<port id="3" precision="FP32">
					<dim>1</dim>
					<dim>1</dim>
					<dim>1</dim>
					<dim>1</dim>
				</port>
				<port id="4" precision="FP32">
					<dim>1</dim>
					<dim>1</dim>
					<dim>1</dim>
					<dim>1</dim>
				</port>
			</input>
			<output>
				<port id="5" precision="FP32" names="/rlfb_qpa/RLFB3/RLFB3.0/act/Generator/RLFB_QPA[rlfb_qpa]/Sequential[RLFB3]/RLFB[0]/LeakyReLU[act]/leaky_relu_1|OUTPUT/FakeQuantize_output_0">
					<dim>8</dim>
					<dim>48</dim>
					<dim>1352</dim>
					<dim>2040</dim>
				</port>
			</output>
		</layer>
		<layer id="268" name="rlfb_qpa.RLFB3.0.c3_r.weight" type="Const" version="opset1">
			<data element_type="i8" shape="48, 48, 3, 3" offset="218476" size="20736" />
			<output>
				<port id="0" precision="I8">
					<dim>48</dim>
					<dim>48</dim>
					<dim>3</dim>
					<dim>3</dim>
				</port>
			</output>
		</layer>
		<layer id="269" name="Convert_7987" type="Convert" version="opset1">
			<data destination_type="f32" />
			<input>
				<port id="0" precision="I8">
					<dim>48</dim>
					<dim>48</dim>
					<dim>3</dim>
					<dim>3</dim>
				</port>
			</input>
			<output>
				<port id="1" precision="FP32">
					<dim>48</dim>
					<dim>48</dim>
					<dim>3</dim>
					<dim>3</dim>
				</port>
			</output>
		</layer>
		<layer id="270" name="Constant_7924" type="Const" version="opset1">
			<data element_type="f32" shape="48, 1, 1, 1" offset="239212" size="192" />
			<output>
				<port id="0" precision="FP32">
					<dim>48</dim>
					<dim>1</dim>
					<dim>1</dim>
					<dim>1</dim>
				</port>
			</output>
		</layer>
		<layer id="271" name="/rlfb_qpa/RLFB3/RLFB3.0/c3_r/pre_ops.0/op/FakeQuantize" type="Multiply" version="opset1">
			<data auto_broadcast="numpy" />
			<input>
				<port id="0" precision="FP32">
					<dim>48</dim>
					<dim>48</dim>
					<dim>3</dim>
					<dim>3</dim>
				</port>
				<port id="1" precision="FP32">
					<dim>48</dim>
					<dim>1</dim>
					<dim>1</dim>
					<dim>1</dim>
				</port>
			</input>
			<output>
				<port id="2" precision="FP32" names="/rlfb_qpa/RLFB3/RLFB3.0/c3_r/pre_ops.0/op/FakeQuantize_output_0">
					<dim>48</dim>
					<dim>48</dim>
					<dim>3</dim>
					<dim>3</dim>
				</port>
			</output>
		</layer>
		<layer id="272" name="/rlfb_qpa/RLFB3/RLFB3.0/c3_r/Conv/WithoutBiases" type="Convolution" version="opset1">
			<data strides="1, 1" dilations="1, 1" pads_begin="1, 1" pads_end="1, 1" auto_pad="explicit" />
			<input>
				<port id="0" precision="FP32">
					<dim>8</dim>
					<dim>48</dim>
					<dim>1352</dim>
					<dim>2040</dim>
				</port>
				<port id="1" precision="FP32">
					<dim>48</dim>
					<dim>48</dim>
					<dim>3</dim>
					<dim>3</dim>
				</port>
			</input>
			<output>
				<port id="2" precision="FP32">
					<dim>8</dim>
					<dim>48</dim>
					<dim>1352</dim>
					<dim>2040</dim>
				</port>
			</output>
		</layer>
		<layer id="273" name="Reshape_886" type="Const" version="opset1">
			<data element_type="f32" shape="1, 48, 1, 1" offset="239404" size="192" />
			<output>
				<port id="0" precision="FP32">
					<dim>1</dim>
					<dim>48</dim>
					<dim>1</dim>
					<dim>1</dim>
				</port>
			</output>
		</layer>
		<layer id="274" name="/rlfb_qpa/RLFB3/RLFB3.0/c3_r/Conv" type="Add" version="opset1">
			<data auto_broadcast="numpy" />
			<input>
				<port id="0" precision="FP32">
					<dim>8</dim>
					<dim>48</dim>
					<dim>1352</dim>
					<dim>2040</dim>
				</port>
				<port id="1" precision="FP32">
					<dim>1</dim>
					<dim>48</dim>
					<dim>1</dim>
					<dim>1</dim>
				</port>
			</input>
			<output>
				<port id="2" precision="FP32" names="/rlfb_qpa/RLFB3/RLFB3.0/c3_r/Conv_output_0">
					<dim>8</dim>
					<dim>48</dim>
					<dim>1352</dim>
					<dim>2040</dim>
				</port>
			</output>
		</layer>
		<layer id="275" name="Constant_914" type="Const" version="opset1">
			<data element_type="f32" shape="1" offset="21956" size="4" />
			<output>
				<port id="0" precision="FP32">
					<dim>1</dim>
				</port>
			</output>
		</layer>
		<layer id="276" name="/rlfb_qpa/RLFB3/RLFB3.0/act_2/LeakyRelu" type="PReLU" version="opset1">
			<input>
				<port id="0" precision="FP32">
					<dim>8</dim>
					<dim>48</dim>
					<dim>1352</dim>
					<dim>2040</dim>
				</port>
				<port id="1" precision="FP32">
					<dim>1</dim>
				</port>
			</input>
			<output>
				<port id="2" precision="FP32" names="/rlfb_qpa/RLFB3/RLFB3.0/act_2/LeakyRelu_output_0">
					<dim>8</dim>
					<dim>48</dim>
					<dim>1352</dim>
					<dim>2040</dim>
				</port>
			</output>
		</layer>
		<layer id="277" name="Constant_5900" type="Const" version="opset1">
			<data element_type="f32" shape="1, 1, 1, 1" offset="239596" size="4" />
			<output>
				<port id="0" precision="FP32">
					<dim>1</dim>
					<dim>1</dim>
					<dim>1</dim>
					<dim>1</dim>
				</port>
			</output>
		</layer>
		<layer id="278" name="Constant_5901" type="Const" version="opset1">
			<data element_type="f32" shape="1, 1, 1, 1" offset="239600" size="4" />
			<output>
				<port id="0" precision="FP32">
					<dim>1</dim>
					<dim>1</dim>
					<dim>1</dim>
					<dim>1</dim>
				</port>
			</output>
		</layer>
		<layer id="279" name="Constant_5902" type="Const" version="opset1">
			<data element_type="f32" shape="1, 1, 1, 1" offset="239596" size="4" />
			<output>
				<port id="0" precision="FP32">
					<dim>1</dim>
					<dim>1</dim>
					<dim>1</dim>
					<dim>1</dim>
				</port>
			</output>
		</layer>
		<layer id="280" name="Constant_5903" type="Const" version="opset1">
			<data element_type="f32" shape="1, 1, 1, 1" offset="239600" size="4" />
			<output>
				<port id="0" precision="FP32">
					<dim>1</dim>
					<dim>1</dim>
					<dim>1</dim>
					<dim>1</dim>
				</port>
			</output>
		</layer>
		<layer id="281" name="/rlfb_qpa/RLFB3/RLFB3.0/act/Generator/RLFB_QPA[rlfb_qpa]/Sequential[RLFB3]/RLFB[0]/LeakyReLU[act]/leaky_relu_2|OUTPUT/FakeQuantize" type="FakeQuantize" version="opset1">
			<data levels="256" auto_broadcast="numpy" />
			<input>
				<port id="0" precision="FP32">
					<dim>8</dim>
					<dim>48</dim>
					<dim>1352</dim>
					<dim>2040</dim>
				</port>
				<port id="1" precision="FP32">
					<dim>1</dim>
					<dim>1</dim>
					<dim>1</dim>
					<dim>1</dim>
				</port>
				<port id="2" precision="FP32">
					<dim>1</dim>
					<dim>1</dim>
					<dim>1</dim>
					<dim>1</dim>
				</port>
				<port id="3" precision="FP32">
					<dim>1</dim>
					<dim>1</dim>
					<dim>1</dim>
					<dim>1</dim>
				</port>
				<port id="4" precision="FP32">
					<dim>1</dim>
					<dim>1</dim>
					<dim>1</dim>
					<dim>1</dim>
				</port>
			</input>
			<output>
				<port id="5" precision="FP32" names="/rlfb_qpa/RLFB3/RLFB3.0/act/Generator/RLFB_QPA[rlfb_qpa]/Sequential[RLFB3]/RLFB[0]/LeakyReLU[act]/leaky_relu_2|OUTPUT/FakeQuantize_output_0">
					<dim>8</dim>
					<dim>48</dim>
					<dim>1352</dim>
					<dim>2040</dim>
				</port>
			</output>
		</layer>
		<layer id="282" name="/rlfb_qpa/RLFB3/RLFB3.0/Add" type="Add" version="opset1">
			<data auto_broadcast="numpy" />
			<input>
				<port id="0" precision="FP32">
					<dim>8</dim>
					<dim>48</dim>
					<dim>1352</dim>
					<dim>2040</dim>
				</port>
				<port id="1" precision="FP32">
					<dim>8</dim>
					<dim>48</dim>
					<dim>1352</dim>
					<dim>2040</dim>
				</port>
			</input>
			<output>
				<port id="2" precision="FP32" names="/rlfb_qpa/RLFB3/RLFB3.0/Add_output_0">
					<dim>8</dim>
					<dim>48</dim>
					<dim>1352</dim>
					<dim>2040</dim>
				</port>
			</output>
		</layer>
		<layer id="283" name="Constant_5904" type="Const" version="opset1">
			<data element_type="f32" shape="1, 1, 1, 1" offset="239604" size="4" />
			<output>
				<port id="0" precision="FP32">
					<dim>1</dim>
					<dim>1</dim>
					<dim>1</dim>
					<dim>1</dim>
				</port>
			</output>
		</layer>
		<layer id="284" name="Constant_5905" type="Const" version="opset1">
			<data element_type="f32" shape="1, 1, 1, 1" offset="239608" size="4" />
			<output>
				<port id="0" precision="FP32">
					<dim>1</dim>
					<dim>1</dim>
					<dim>1</dim>
					<dim>1</dim>
				</port>
			</output>
		</layer>
		<layer id="285" name="Constant_5906" type="Const" version="opset1">
			<data element_type="f32" shape="1, 1, 1, 1" offset="239604" size="4" />
			<output>
				<port id="0" precision="FP32">
					<dim>1</dim>
					<dim>1</dim>
					<dim>1</dim>
					<dim>1</dim>
				</port>
			</output>
		</layer>
		<layer id="286" name="Constant_5907" type="Const" version="opset1">
			<data element_type="f32" shape="1, 1, 1, 1" offset="239608" size="4" />
			<output>
				<port id="0" precision="FP32">
					<dim>1</dim>
					<dim>1</dim>
					<dim>1</dim>
					<dim>1</dim>
				</port>
			</output>
		</layer>
		<layer id="287" name="/rlfb_qpa/RLFB3/RLFB3.0/Generator/RLFB_QPA[rlfb_qpa]/Sequential[RLFB3]/RLFB[0]/__add___0|OUTPUT/FakeQuantize" type="FakeQuantize" version="opset1">
			<data levels="256" auto_broadcast="numpy" />
			<input>
				<port id="0" precision="FP32">
					<dim>8</dim>
					<dim>48</dim>
					<dim>1352</dim>
					<dim>2040</dim>
				</port>
				<port id="1" precision="FP32">
					<dim>1</dim>
					<dim>1</dim>
					<dim>1</dim>
					<dim>1</dim>
				</port>
				<port id="2" precision="FP32">
					<dim>1</dim>
					<dim>1</dim>
					<dim>1</dim>
					<dim>1</dim>
				</port>
				<port id="3" precision="FP32">
					<dim>1</dim>
					<dim>1</dim>
					<dim>1</dim>
					<dim>1</dim>
				</port>
				<port id="4" precision="FP32">
					<dim>1</dim>
					<dim>1</dim>
					<dim>1</dim>
					<dim>1</dim>
				</port>
			</input>
			<output>
				<port id="5" precision="FP32" names="/rlfb_qpa/RLFB3/RLFB3.0/Generator/RLFB_QPA[rlfb_qpa]/Sequential[RLFB3]/RLFB[0]/__add___0|OUTPUT/FakeQuantize_output_0">
					<dim>8</dim>
					<dim>48</dim>
					<dim>1352</dim>
					<dim>2040</dim>
				</port>
			</output>
		</layer>
		<layer id="288" name="rlfb_qpa.RLFB3.0.c5.weight" type="Const" version="opset1">
			<data element_type="i8" shape="48, 48, 1, 1" offset="239612" size="2304" />
			<output>
				<port id="0" precision="I8">
					<dim>48</dim>
					<dim>48</dim>
					<dim>1</dim>
					<dim>1</dim>
				</port>
			</output>
		</layer>
		<layer id="289" name="Convert_8108" type="Convert" version="opset1">
			<data destination_type="f32" />
			<input>
				<port id="0" precision="I8">
					<dim>48</dim>
					<dim>48</dim>
					<dim>1</dim>
					<dim>1</dim>
				</port>
			</input>
			<output>
				<port id="1" precision="FP32">
					<dim>48</dim>
					<dim>48</dim>
					<dim>1</dim>
					<dim>1</dim>
				</port>
			</output>
		</layer>
		<layer id="290" name="Constant_8045" type="Const" version="opset1">
			<data element_type="f32" shape="48, 1, 1, 1" offset="241916" size="192" />
			<output>
				<port id="0" precision="FP32">
					<dim>48</dim>
					<dim>1</dim>
					<dim>1</dim>
					<dim>1</dim>
				</port>
			</output>
		</layer>
		<layer id="291" name="/rlfb_qpa/RLFB3/RLFB3.0/c5/pre_ops.0/op/FakeQuantize" type="Multiply" version="opset1">
			<data auto_broadcast="numpy" />
			<input>
				<port id="0" precision="FP32">
					<dim>48</dim>
					<dim>48</dim>
					<dim>1</dim>
					<dim>1</dim>
				</port>
				<port id="1" precision="FP32">
					<dim>48</dim>
					<dim>1</dim>
					<dim>1</dim>
					<dim>1</dim>
				</port>
			</input>
			<output>
				<port id="2" precision="FP32" names="/rlfb_qpa/RLFB3/RLFB3.0/c5/pre_ops.0/op/FakeQuantize_output_0">
					<dim>48</dim>
					<dim>48</dim>
					<dim>1</dim>
					<dim>1</dim>
				</port>
			</output>
		</layer>
		<layer id="292" name="/rlfb_qpa/RLFB3/RLFB3.0/c5/Conv/WithoutBiases" type="Convolution" version="opset1">
			<data strides="1, 1" dilations="1, 1" pads_begin="0, 0" pads_end="0, 0" auto_pad="explicit" />
			<input>
				<port id="0" precision="FP32">
					<dim>8</dim>
					<dim>48</dim>
					<dim>1352</dim>
					<dim>2040</dim>
				</port>
				<port id="1" precision="FP32">
					<dim>48</dim>
					<dim>48</dim>
					<dim>1</dim>
					<dim>1</dim>
				</port>
			</input>
			<output>
				<port id="2" precision="FP32">
					<dim>8</dim>
					<dim>48</dim>
					<dim>1352</dim>
					<dim>2040</dim>
				</port>
			</output>
		</layer>
		<layer id="293" name="Reshape_946" type="Const" version="opset1">
			<data element_type="f32" shape="1, 48, 1, 1" offset="242108" size="192" />
			<output>
				<port id="0" precision="FP32">
					<dim>1</dim>
					<dim>48</dim>
					<dim>1</dim>
					<dim>1</dim>
				</port>
			</output>
		</layer>
		<layer id="294" name="/rlfb_qpa/RLFB3/RLFB3.0/c5/Conv" type="Add" version="opset1">
			<data auto_broadcast="numpy" />
			<input>
				<port id="0" precision="FP32">
					<dim>8</dim>
					<dim>48</dim>
					<dim>1352</dim>
					<dim>2040</dim>
				</port>
				<port id="1" precision="FP32">
					<dim>1</dim>
					<dim>48</dim>
					<dim>1</dim>
					<dim>1</dim>
				</port>
			</input>
			<output>
				<port id="2" precision="FP32" names="/rlfb_qpa/RLFB3/RLFB3.0/c5/Conv_output_0">
					<dim>8</dim>
					<dim>48</dim>
					<dim>1352</dim>
					<dim>2040</dim>
				</port>
			</output>
		</layer>
		<layer id="295" name="Constant_5908" type="Const" version="opset1">
			<data element_type="f32" shape="1, 1, 1, 1" offset="242300" size="4" />
			<output>
				<port id="0" precision="FP32">
					<dim>1</dim>
					<dim>1</dim>
					<dim>1</dim>
					<dim>1</dim>
				</port>
			</output>
		</layer>
		<layer id="296" name="Constant_5909" type="Const" version="opset1">
			<data element_type="f32" shape="1, 1, 1, 1" offset="242304" size="4" />
			<output>
				<port id="0" precision="FP32">
					<dim>1</dim>
					<dim>1</dim>
					<dim>1</dim>
					<dim>1</dim>
				</port>
			</output>
		</layer>
		<layer id="297" name="Constant_5910" type="Const" version="opset1">
			<data element_type="f32" shape="1, 1, 1, 1" offset="242300" size="4" />
			<output>
				<port id="0" precision="FP32">
					<dim>1</dim>
					<dim>1</dim>
					<dim>1</dim>
					<dim>1</dim>
				</port>
			</output>
		</layer>
		<layer id="298" name="Constant_5911" type="Const" version="opset1">
			<data element_type="f32" shape="1, 1, 1, 1" offset="242304" size="4" />
			<output>
				<port id="0" precision="FP32">
					<dim>1</dim>
					<dim>1</dim>
					<dim>1</dim>
					<dim>1</dim>
				</port>
			</output>
		</layer>
		<layer id="299" name="/rlfb_qpa/RLFB3/RLFB3.0/c5/Generator/RLFB_QPA[rlfb_qpa]/Sequential[RLFB3]/RLFB[0]/NNCFConv2d[c5]/conv2d_0|OUTPUT/FakeQuantize" type="FakeQuantize" version="opset1">
			<data levels="256" auto_broadcast="numpy" />
			<input>
				<port id="0" precision="FP32">
					<dim>8</dim>
					<dim>48</dim>
					<dim>1352</dim>
					<dim>2040</dim>
				</port>
				<port id="1" precision="FP32">
					<dim>1</dim>
					<dim>1</dim>
					<dim>1</dim>
					<dim>1</dim>
				</port>
				<port id="2" precision="FP32">
					<dim>1</dim>
					<dim>1</dim>
					<dim>1</dim>
					<dim>1</dim>
				</port>
				<port id="3" precision="FP32">
					<dim>1</dim>
					<dim>1</dim>
					<dim>1</dim>
					<dim>1</dim>
				</port>
				<port id="4" precision="FP32">
					<dim>1</dim>
					<dim>1</dim>
					<dim>1</dim>
					<dim>1</dim>
				</port>
			</input>
			<output>
				<port id="5" precision="FP32" names="/rlfb_qpa/RLFB3/RLFB3.0/c5/Generator/RLFB_QPA[rlfb_qpa]/Sequential[RLFB3]/RLFB[0]/NNCFConv2d[c5]/conv2d_0|OUTPUT/FakeQuantize_output_0">
					<dim>8</dim>
					<dim>48</dim>
					<dim>1352</dim>
					<dim>2040</dim>
				</port>
			</output>
		</layer>
		<layer id="300" name="rlfb_qpa.qp_att3.res.weight" type="Const" version="opset1">
			<data element_type="i8" shape="48, 48, 3, 3" offset="242308" size="20736" />
			<output>
				<port id="0" precision="I8">
					<dim>48</dim>
					<dim>48</dim>
					<dim>3</dim>
					<dim>3</dim>
				</port>
			</output>
		</layer>
		<layer id="301" name="Convert_8229" type="Convert" version="opset1">
			<data destination_type="f32" />
			<input>
				<port id="0" precision="I8">
					<dim>48</dim>
					<dim>48</dim>
					<dim>3</dim>
					<dim>3</dim>
				</port>
			</input>
			<output>
				<port id="1" precision="FP32">
					<dim>48</dim>
					<dim>48</dim>
					<dim>3</dim>
					<dim>3</dim>
				</port>
			</output>
		</layer>
		<layer id="302" name="Constant_8166" type="Const" version="opset1">
			<data element_type="f32" shape="48, 1, 1, 1" offset="263044" size="192" />
			<output>
				<port id="0" precision="FP32">
					<dim>48</dim>
					<dim>1</dim>
					<dim>1</dim>
					<dim>1</dim>
				</port>
			</output>
		</layer>
		<layer id="303" name="/rlfb_qpa/qp_att3/res/pre_ops.0/op/FakeQuantize" type="Multiply" version="opset1">
			<data auto_broadcast="numpy" />
			<input>
				<port id="0" precision="FP32">
					<dim>48</dim>
					<dim>48</dim>
					<dim>3</dim>
					<dim>3</dim>
				</port>
				<port id="1" precision="FP32">
					<dim>48</dim>
					<dim>1</dim>
					<dim>1</dim>
					<dim>1</dim>
				</port>
			</input>
			<output>
				<port id="2" precision="FP32" names="/rlfb_qpa/qp_att3/res/pre_ops.0/op/FakeQuantize_output_0">
					<dim>48</dim>
					<dim>48</dim>
					<dim>3</dim>
					<dim>3</dim>
				</port>
			</output>
		</layer>
		<layer id="304" name="/rlfb_qpa/qp_att3/res/Conv/WithoutBiases" type="Convolution" version="opset1">
			<data strides="1, 1" dilations="1, 1" pads_begin="1, 1" pads_end="1, 1" auto_pad="explicit" />
			<input>
				<port id="0" precision="FP32">
					<dim>8</dim>
					<dim>48</dim>
					<dim>1352</dim>
					<dim>2040</dim>
				</port>
				<port id="1" precision="FP32">
					<dim>48</dim>
					<dim>48</dim>
					<dim>3</dim>
					<dim>3</dim>
				</port>
			</input>
			<output>
				<port id="2" precision="FP32">
					<dim>8</dim>
					<dim>48</dim>
					<dim>1352</dim>
					<dim>2040</dim>
				</port>
			</output>
		</layer>
		<layer id="305" name="Reshape_1000" type="Const" version="opset1">
			<data element_type="f32" shape="1, 48, 1, 1" offset="263236" size="192" />
			<output>
				<port id="0" precision="FP32">
					<dim>1</dim>
					<dim>48</dim>
					<dim>1</dim>
					<dim>1</dim>
				</port>
			</output>
		</layer>
		<layer id="306" name="/rlfb_qpa/qp_att3/res/Conv" type="Add" version="opset1">
			<data auto_broadcast="numpy" />
			<input>
				<port id="0" precision="FP32">
					<dim>8</dim>
					<dim>48</dim>
					<dim>1352</dim>
					<dim>2040</dim>
				</port>
				<port id="1" precision="FP32">
					<dim>1</dim>
					<dim>48</dim>
					<dim>1</dim>
					<dim>1</dim>
				</port>
			</input>
			<output>
				<port id="2" precision="FP32" names="/rlfb_qpa/qp_att3/res/Conv_output_0">
					<dim>8</dim>
					<dim>48</dim>
					<dim>1352</dim>
					<dim>2040</dim>
				</port>
			</output>
		</layer>
		<layer id="307" name="Constant_5912" type="Const" version="opset1">
			<data element_type="f32" shape="1, 1, 1, 1" offset="263428" size="4" />
			<output>
				<port id="0" precision="FP32">
					<dim>1</dim>
					<dim>1</dim>
					<dim>1</dim>
					<dim>1</dim>
				</port>
			</output>
		</layer>
		<layer id="308" name="Constant_5913" type="Const" version="opset1">
			<data element_type="f32" shape="1, 1, 1, 1" offset="263432" size="4" />
			<output>
				<port id="0" precision="FP32">
					<dim>1</dim>
					<dim>1</dim>
					<dim>1</dim>
					<dim>1</dim>
				</port>
			</output>
		</layer>
		<layer id="309" name="Constant_5914" type="Const" version="opset1">
			<data element_type="f32" shape="1, 1, 1, 1" offset="263428" size="4" />
			<output>
				<port id="0" precision="FP32">
					<dim>1</dim>
					<dim>1</dim>
					<dim>1</dim>
					<dim>1</dim>
				</port>
			</output>
		</layer>
		<layer id="310" name="Constant_5915" type="Const" version="opset1">
			<data element_type="f32" shape="1, 1, 1, 1" offset="263432" size="4" />
			<output>
				<port id="0" precision="FP32">
					<dim>1</dim>
					<dim>1</dim>
					<dim>1</dim>
					<dim>1</dim>
				</port>
			</output>
		</layer>
		<layer id="311" name="/rlfb_qpa/qp_att3/res/Generator/RLFB_QPA[rlfb_qpa]/QPAttention[qp_att3]/NNCFConv2d[res]/conv2d_0|OUTPUT/FakeQuantize" type="FakeQuantize" version="opset1">
			<data levels="256" auto_broadcast="numpy" />
			<input>
				<port id="0" precision="FP32">
					<dim>8</dim>
					<dim>48</dim>
					<dim>1352</dim>
					<dim>2040</dim>
				</port>
				<port id="1" precision="FP32">
					<dim>1</dim>
					<dim>1</dim>
					<dim>1</dim>
					<dim>1</dim>
				</port>
				<port id="2" precision="FP32">
					<dim>1</dim>
					<dim>1</dim>
					<dim>1</dim>
					<dim>1</dim>
				</port>
				<port id="3" precision="FP32">
					<dim>1</dim>
					<dim>1</dim>
					<dim>1</dim>
					<dim>1</dim>
				</port>
				<port id="4" precision="FP32">
					<dim>1</dim>
					<dim>1</dim>
					<dim>1</dim>
					<dim>1</dim>
				</port>
			</input>
			<output>
				<port id="5" precision="FP32" names="/rlfb_qpa/qp_att3/res/Generator/RLFB_QPA[rlfb_qpa]/QPAttention[qp_att3]/NNCFConv2d[res]/conv2d_0|OUTPUT/FakeQuantize_output_0">
					<dim>8</dim>
					<dim>48</dim>
					<dim>1352</dim>
					<dim>2040</dim>
				</port>
			</output>
		</layer>
		<layer id="312" name="/rlfb_qpa/qp_att3/Mul" type="Multiply" version="opset1">
			<data auto_broadcast="numpy" />
			<input>
				<port id="0" precision="FP32">
					<dim>8</dim>
					<dim>48</dim>
					<dim>1</dim>
					<dim>1</dim>
				</port>
				<port id="1" precision="FP32">
					<dim>8</dim>
					<dim>48</dim>
					<dim>1352</dim>
					<dim>2040</dim>
				</port>
			</input>
			<output>
				<port id="2" precision="FP32" names="/rlfb_qpa/qp_att3/Mul_output_0">
					<dim>8</dim>
					<dim>48</dim>
					<dim>1352</dim>
					<dim>2040</dim>
				</port>
			</output>
		</layer>
		<layer id="313" name="Constant_5916" type="Const" version="opset1">
			<data element_type="f32" shape="1, 1, 1, 1" offset="263436" size="4" />
			<output>
				<port id="0" precision="FP32">
					<dim>1</dim>
					<dim>1</dim>
					<dim>1</dim>
					<dim>1</dim>
				</port>
			</output>
		</layer>
		<layer id="314" name="Constant_5917" type="Const" version="opset1">
			<data element_type="f32" shape="1, 1, 1, 1" offset="263440" size="4" />
			<output>
				<port id="0" precision="FP32">
					<dim>1</dim>
					<dim>1</dim>
					<dim>1</dim>
					<dim>1</dim>
				</port>
			</output>
		</layer>
		<layer id="315" name="Constant_5918" type="Const" version="opset1">
			<data element_type="f32" shape="1, 1, 1, 1" offset="263436" size="4" />
			<output>
				<port id="0" precision="FP32">
					<dim>1</dim>
					<dim>1</dim>
					<dim>1</dim>
					<dim>1</dim>
				</port>
			</output>
		</layer>
		<layer id="316" name="Constant_5919" type="Const" version="opset1">
			<data element_type="f32" shape="1, 1, 1, 1" offset="263440" size="4" />
			<output>
				<port id="0" precision="FP32">
					<dim>1</dim>
					<dim>1</dim>
					<dim>1</dim>
					<dim>1</dim>
				</port>
			</output>
		</layer>
		<layer id="317" name="/rlfb_qpa/qp_att3/Generator/RLFB_QPA[rlfb_qpa]/QPAttention[qp_att3]/__mul___0|OUTPUT/FakeQuantize" type="FakeQuantize" version="opset1">
			<data levels="256" auto_broadcast="numpy" />
			<input>
				<port id="0" precision="FP32">
					<dim>8</dim>
					<dim>48</dim>
					<dim>1352</dim>
					<dim>2040</dim>
				</port>
				<port id="1" precision="FP32">
					<dim>1</dim>
					<dim>1</dim>
					<dim>1</dim>
					<dim>1</dim>
				</port>
				<port id="2" precision="FP32">
					<dim>1</dim>
					<dim>1</dim>
					<dim>1</dim>
					<dim>1</dim>
				</port>
				<port id="3" precision="FP32">
					<dim>1</dim>
					<dim>1</dim>
					<dim>1</dim>
					<dim>1</dim>
				</port>
				<port id="4" precision="FP32">
					<dim>1</dim>
					<dim>1</dim>
					<dim>1</dim>
					<dim>1</dim>
				</port>
			</input>
			<output>
				<port id="5" precision="FP32" names="/rlfb_qpa/qp_att3/Generator/RLFB_QPA[rlfb_qpa]/QPAttention[qp_att3]/__mul___0|OUTPUT/FakeQuantize_output_0">
					<dim>8</dim>
					<dim>48</dim>
					<dim>1352</dim>
					<dim>2040</dim>
				</port>
			</output>
		</layer>
		<layer id="318" name="/rlfb_qpa/qp_att3/Add" type="Add" version="opset1">
			<data auto_broadcast="numpy" />
			<input>
				<port id="0" precision="FP32">
					<dim>8</dim>
					<dim>48</dim>
					<dim>1352</dim>
					<dim>2040</dim>
				</port>
				<port id="1" precision="FP32">
					<dim>8</dim>
					<dim>48</dim>
					<dim>1</dim>
					<dim>1</dim>
				</port>
			</input>
			<output>
				<port id="2" precision="FP32" names="/rlfb_qpa/qp_att3/Add_output_0">
					<dim>8</dim>
					<dim>48</dim>
					<dim>1352</dim>
					<dim>2040</dim>
				</port>
			</output>
		</layer>
		<layer id="319" name="Constant_5920" type="Const" version="opset1">
			<data element_type="f32" shape="1, 1, 1, 1" offset="263444" size="4" />
			<output>
				<port id="0" precision="FP32">
					<dim>1</dim>
					<dim>1</dim>
					<dim>1</dim>
					<dim>1</dim>
				</port>
			</output>
		</layer>
		<layer id="320" name="Constant_5921" type="Const" version="opset1">
			<data element_type="f32" shape="1, 1, 1, 1" offset="263448" size="4" />
			<output>
				<port id="0" precision="FP32">
					<dim>1</dim>
					<dim>1</dim>
					<dim>1</dim>
					<dim>1</dim>
				</port>
			</output>
		</layer>
		<layer id="321" name="Constant_5922" type="Const" version="opset1">
			<data element_type="f32" shape="1, 1, 1, 1" offset="263444" size="4" />
			<output>
				<port id="0" precision="FP32">
					<dim>1</dim>
					<dim>1</dim>
					<dim>1</dim>
					<dim>1</dim>
				</port>
			</output>
		</layer>
		<layer id="322" name="Constant_5923" type="Const" version="opset1">
			<data element_type="f32" shape="1, 1, 1, 1" offset="263448" size="4" />
			<output>
				<port id="0" precision="FP32">
					<dim>1</dim>
					<dim>1</dim>
					<dim>1</dim>
					<dim>1</dim>
				</port>
			</output>
		</layer>
		<layer id="323" name="/rlfb_qpa/qp_att3/Generator/RLFB_QPA[rlfb_qpa]/QPAttention[qp_att3]/__add___0|OUTPUT/FakeQuantize" type="FakeQuantize" version="opset1">
			<data levels="256" auto_broadcast="numpy" />
			<input>
				<port id="0" precision="FP32">
					<dim>8</dim>
					<dim>48</dim>
					<dim>1352</dim>
					<dim>2040</dim>
				</port>
				<port id="1" precision="FP32">
					<dim>1</dim>
					<dim>1</dim>
					<dim>1</dim>
					<dim>1</dim>
				</port>
				<port id="2" precision="FP32">
					<dim>1</dim>
					<dim>1</dim>
					<dim>1</dim>
					<dim>1</dim>
				</port>
				<port id="3" precision="FP32">
					<dim>1</dim>
					<dim>1</dim>
					<dim>1</dim>
					<dim>1</dim>
				</port>
				<port id="4" precision="FP32">
					<dim>1</dim>
					<dim>1</dim>
					<dim>1</dim>
					<dim>1</dim>
				</port>
			</input>
			<output>
				<port id="5" precision="FP32" names="/rlfb_qpa/qp_att3/Generator/RLFB_QPA[rlfb_qpa]/QPAttention[qp_att3]/__add___0|OUTPUT/FakeQuantize_output_0">
					<dim>8</dim>
					<dim>48</dim>
					<dim>1352</dim>
					<dim>2040</dim>
				</port>
			</output>
		</layer>
		<layer id="324" name="/rlfb_qpa/qp_att3/Add_1" type="Add" version="opset1">
			<data auto_broadcast="numpy" />
			<input>
				<port id="0" precision="FP32">
					<dim>8</dim>
					<dim>48</dim>
					<dim>1352</dim>
					<dim>2040</dim>
				</port>
				<port id="1" precision="FP32">
					<dim>8</dim>
					<dim>48</dim>
					<dim>1352</dim>
					<dim>2040</dim>
				</port>
			</input>
			<output>
				<port id="2" precision="FP32" names="/rlfb_qpa/qp_att3/Add_1_output_0">
					<dim>8</dim>
					<dim>48</dim>
					<dim>1352</dim>
					<dim>2040</dim>
				</port>
			</output>
		</layer>
		<layer id="325" name="Constant_5924" type="Const" version="opset1">
			<data element_type="f32" shape="1, 1, 1, 1" offset="263452" size="4" />
			<output>
				<port id="0" precision="FP32">
					<dim>1</dim>
					<dim>1</dim>
					<dim>1</dim>
					<dim>1</dim>
				</port>
			</output>
		</layer>
		<layer id="326" name="Constant_5925" type="Const" version="opset1">
			<data element_type="f32" shape="1, 1, 1, 1" offset="263456" size="4" />
			<output>
				<port id="0" precision="FP32">
					<dim>1</dim>
					<dim>1</dim>
					<dim>1</dim>
					<dim>1</dim>
				</port>
			</output>
		</layer>
		<layer id="327" name="Constant_5926" type="Const" version="opset1">
			<data element_type="f32" shape="1, 1, 1, 1" offset="263452" size="4" />
			<output>
				<port id="0" precision="FP32">
					<dim>1</dim>
					<dim>1</dim>
					<dim>1</dim>
					<dim>1</dim>
				</port>
			</output>
		</layer>
		<layer id="328" name="Constant_5927" type="Const" version="opset1">
			<data element_type="f32" shape="1, 1, 1, 1" offset="263456" size="4" />
			<output>
				<port id="0" precision="FP32">
					<dim>1</dim>
					<dim>1</dim>
					<dim>1</dim>
					<dim>1</dim>
				</port>
			</output>
		</layer>
		<layer id="329" name="/rlfb_qpa/qp_att3/Generator/RLFB_QPA[rlfb_qpa]/QPAttention[qp_att3]/__add___1|OUTPUT/FakeQuantize" type="FakeQuantize" version="opset1">
			<data levels="256" auto_broadcast="numpy" />
			<input>
				<port id="0" precision="FP32">
					<dim>8</dim>
					<dim>48</dim>
					<dim>1352</dim>
					<dim>2040</dim>
				</port>
				<port id="1" precision="FP32">
					<dim>1</dim>
					<dim>1</dim>
					<dim>1</dim>
					<dim>1</dim>
				</port>
				<port id="2" precision="FP32">
					<dim>1</dim>
					<dim>1</dim>
					<dim>1</dim>
					<dim>1</dim>
				</port>
				<port id="3" precision="FP32">
					<dim>1</dim>
					<dim>1</dim>
					<dim>1</dim>
					<dim>1</dim>
				</port>
				<port id="4" precision="FP32">
					<dim>1</dim>
					<dim>1</dim>
					<dim>1</dim>
					<dim>1</dim>
				</port>
			</input>
			<output>
				<port id="5" precision="FP32" names="/rlfb_qpa/qp_att3/Generator/RLFB_QPA[rlfb_qpa]/QPAttention[qp_att3]/__add___1|OUTPUT/FakeQuantize_output_0">
					<dim>8</dim>
					<dim>48</dim>
					<dim>1352</dim>
					<dim>2040</dim>
				</port>
			</output>
		</layer>
		<layer id="330" name="rlfb_qpa.RLFB4.0.c1_r.weight" type="Const" version="opset1">
			<data element_type="i8" shape="48, 48, 3, 3" offset="263460" size="20736" />
			<output>
				<port id="0" precision="I8">
					<dim>48</dim>
					<dim>48</dim>
					<dim>3</dim>
					<dim>3</dim>
				</port>
			</output>
		</layer>
		<layer id="331" name="Convert_8350" type="Convert" version="opset1">
			<data destination_type="f32" />
			<input>
				<port id="0" precision="I8">
					<dim>48</dim>
					<dim>48</dim>
					<dim>3</dim>
					<dim>3</dim>
				</port>
			</input>
			<output>
				<port id="1" precision="FP32">
					<dim>48</dim>
					<dim>48</dim>
					<dim>3</dim>
					<dim>3</dim>
				</port>
			</output>
		</layer>
		<layer id="332" name="Constant_8287" type="Const" version="opset1">
			<data element_type="f32" shape="48, 1, 1, 1" offset="284196" size="192" />
			<output>
				<port id="0" precision="FP32">
					<dim>48</dim>
					<dim>1</dim>
					<dim>1</dim>
					<dim>1</dim>
				</port>
			</output>
		</layer>
		<layer id="333" name="/rlfb_qpa/RLFB4/RLFB4.0/c1_r/pre_ops.0/op/FakeQuantize" type="Multiply" version="opset1">
			<data auto_broadcast="numpy" />
			<input>
				<port id="0" precision="FP32">
					<dim>48</dim>
					<dim>48</dim>
					<dim>3</dim>
					<dim>3</dim>
				</port>
				<port id="1" precision="FP32">
					<dim>48</dim>
					<dim>1</dim>
					<dim>1</dim>
					<dim>1</dim>
				</port>
			</input>
			<output>
				<port id="2" precision="FP32" names="/rlfb_qpa/RLFB4/RLFB4.0/c1_r/pre_ops.0/op/FakeQuantize_output_0">
					<dim>48</dim>
…
		<layer id="619" name="/add_conv/add_conv.1/Generator/Sequential[add_conv]/LeakyReLU[1]/leaky_relu_0|OUTPUT/FakeQuantize" type="FakeQuantize" version="opset1">
			<data levels="256" auto_broadcast="numpy" />
			<input>
				<port id="0" precision="FP32">
					<dim>8</dim>
					<dim>48</dim>
					<dim>1352</dim>
					<dim>2040</dim>
				</port>
				<port id="1" precision="FP32">
					<dim>1</dim>
					<dim>1</dim>
					<dim>1</dim>
					<dim>1</dim>
				</port>
				<port id="2" precision="FP32">
					<dim>1</dim>
					<dim>1</dim>
					<dim>1</dim>
					<dim>1</dim>
				</port>
				<port id="3" precision="FP32">
					<dim>1</dim>
					<dim>1</dim>
					<dim>1</dim>
					<dim>1</dim>
				</port>
				<port id="4" precision="FP32">
					<dim>1</dim>
					<dim>1</dim>
					<dim>1</dim>
					<dim>1</dim>
				</port>
			</input>
			<output>
				<port id="5" precision="FP32" names="/add_conv/add_conv.1/Generator/Sequential[add_conv]/LeakyReLU[1]/leaky_relu_0|OUTPUT/FakeQuantize_output_0">
					<dim>8</dim>
					<dim>48</dim>
					<dim>1352</dim>
					<dim>2040</dim>
				</port>
			</output>
		</layer>
		<layer id="620" name="out_conv.0.weight" type="Const" version="opset1">
			<data element_type="i8" shape="1, 48, 3, 3" offset="546316" size="432" />
			<output>
				<port id="0" precision="I8">
					<dim>1</dim>
					<dim>48</dim>
					<dim>3</dim>
					<dim>3</dim>
				</port>
			</output>
		</layer>
		<layer id="621" name="Convert_10334" type="Convert" version="opset1">
			<data destination_type="f32" />
			<input>
				<port id="0" precision="I8">
					<dim>1</dim>
					<dim>48</dim>
					<dim>3</dim>
					<dim>3</dim>
				</port>
			</input>
			<output>
				<port id="1" precision="FP32">
					<dim>1</dim>
					<dim>48</dim>
					<dim>3</dim>
					<dim>3</dim>
				</port>
			</output>
		</layer>
		<layer id="622" name="Constant_10241" type="Const" version="opset1">
			<data element_type="f32" shape="1, 1, 1, 1" offset="546748" size="4" />
			<output>
				<port id="0" precision="FP32">
					<dim>1</dim>
					<dim>1</dim>
					<dim>1</dim>
					<dim>1</dim>
				</port>
			</output>
		</layer>
		<layer id="623" name="/out_conv/out_conv.0/pre_ops.0/op/FakeQuantize" type="Multiply" version="opset1">
			<data auto_broadcast="numpy" />
			<input>
				<port id="0" precision="FP32">
					<dim>1</dim>
					<dim>48</dim>
					<dim>3</dim>
					<dim>3</dim>
				</port>
				<port id="1" precision="FP32">
					<dim>1</dim>
					<dim>1</dim>
					<dim>1</dim>
					<dim>1</dim>
				</port>
			</input>
			<output>
				<port id="2" precision="FP32" names="/out_conv/out_conv.0/pre_ops.0/op/FakeQuantize_output_0">
					<dim>1</dim>
					<dim>48</dim>
					<dim>3</dim>
					<dim>3</dim>
				</port>
			</output>
		</layer>
		<layer id="624" name="/out_conv/out_conv.0/Conv/WithoutBiases" type="Convolution" version="opset1">
			<data strides="1, 1" dilations="1, 1" pads_begin="1, 1" pads_end="1, 1" auto_pad="explicit" />
			<input>
				<port id="0" precision="FP32">
					<dim>8</dim>
					<dim>48</dim>
					<dim>1352</dim>
					<dim>2040</dim>
				</port>
				<port id="1" precision="FP32">
					<dim>1</dim>
					<dim>48</dim>
					<dim>3</dim>
					<dim>3</dim>
				</port>
			</input>
			<output>
				<port id="2" precision="FP32">
					<dim>8</dim>
					<dim>1</dim>
					<dim>1352</dim>
					<dim>2040</dim>
				</port>
			</output>
		</layer>
		<layer id="625" name="Reshape_2002" type="Const" version="opset1">
			<data element_type="f32" shape="1, 1, 1, 1" offset="546752" size="4" />
			<output>
				<port id="0" precision="FP32">
					<dim>1</dim>
					<dim>1</dim>
					<dim>1</dim>
					<dim>1</dim>
				</port>
			</output>
		</layer>
		<layer id="626" name="/out_conv/out_conv.0/Conv" type="Add" version="opset1">
			<data auto_broadcast="numpy" />
			<input>
				<port id="0" precision="FP32">
					<dim>8</dim>
					<dim>1</dim>
					<dim>1352</dim>
					<dim>2040</dim>
				</port>
				<port id="1" precision="FP32">
					<dim>1</dim>
					<dim>1</dim>
					<dim>1</dim>
					<dim>1</dim>
				</port>
			</input>
			<output>
				<port id="2" precision="FP32" names="/out_conv/out_conv.0/Conv_output_0">
					<dim>8</dim>
					<dim>1</dim>
					<dim>1352</dim>
					<dim>2040</dim>
				</port>
			</output>
		</layer>
		<layer id="627" name="866" type="ReLU" version="opset1">
			<input>
				<port id="0" precision="FP32">
					<dim>8</dim>
					<dim>1</dim>
					<dim>1352</dim>
					<dim>2040</dim>
				</port>
			</input>
			<output>
				<port id="1" precision="FP32" names="866">
					<dim>8</dim>
					<dim>1</dim>
					<dim>1352</dim>
					<dim>2040</dim>
				</port>
			</output>
		</layer>
		<layer id="628" name="866/sink_port_0" type="Result" version="opset1">
			<input>
				<port id="0" precision="FP32">
					<dim>8</dim>
					<dim>1</dim>
					<dim>1352</dim>
					<dim>2040</dim>
				</port>
			</input>
		</layer>
	</layers>
	<edges>
		<edge from-layer="0" from-port="0" to-layer="6" to-port="0" />
		<edge from-layer="1" from-port="0" to-layer="85" to-port="0" />
		<edge from-layer="2" from-port="0" to-layer="6" to-port="1" />
		<edge from-layer="3" from-port="0" to-layer="6" to-port="2" />
		<edge from-layer="4" from-port="0" to-layer="6" to-port="3" />
		<edge from-layer="5" from-port="0" to-layer="6" to-port="4" />
		<edge from-layer="6" from-port="5" to-layer="11" to-port="0" />
		<edge from-layer="7" from-port="0" to-layer="8" to-port="0" />
		<edge from-layer="8" from-port="1" to-layer="10" to-port="0" />
		<edge from-layer="9" from-port="0" to-layer="10" to-port="1" />
		<edge from-layer="10" from-port="2" to-layer="11" to-port="1" />
		<edge from-layer="11" from-port="2" to-layer="13" to-port="0" />
		<edge from-layer="12" from-port="0" to-layer="13" to-port="1" />
		<edge from-layer="13" from-port="2" to-layer="15" to-port="0" />
		<edge from-layer="14" from-port="0" to-layer="15" to-port="1" />
		<edge from-layer="15" from-port="2" to-layer="20" to-port="0" />
		<edge from-layer="16" from-port="0" to-layer="20" to-port="1" />
		<edge from-layer="17" from-port="0" to-layer="20" to-port="2" />
		<edge from-layer="18" from-port="0" to-layer="20" to-port="3" />
		<edge from-layer="19" from-port="0" to-layer="20" to-port="4" />
		<edge from-layer="20" from-port="5" to-layer="25" to-port="0" />
		<edge from-layer="20" from-port="5" to-layer="600" to-port="0" />
		<edge from-layer="20" from-port="5" to-layer="63" to-port="1" />
		<edge from-layer="21" from-port="0" to-layer="22" to-port="0" />
		<edge from-layer="22" from-port="1" to-layer="24" to-port="0" />
		<edge from-layer="23" from-port="0" to-layer="24" to-port="1" />
		<edge from-layer="24" from-port="2" to-layer="25" to-port="1" />
		<edge from-layer="25" from-port="2" to-layer="27" to-port="0" />
		<edge from-layer="26" from-port="0" to-layer="27" to-port="1" />
		<edge from-layer="27" from-port="2" to-layer="29" to-port="0" />
		<edge from-layer="28" from-port="0" to-layer="29" to-port="1" />
		<edge from-layer="29" from-port="2" to-layer="34" to-port="0" />
		<edge from-layer="30" from-port="0" to-layer="34" to-port="1" />
		<edge from-layer="31" from-port="0" to-layer="34" to-port="2" />
		<edge from-layer="32" from-port="0" to-layer="34" to-port="3" />
		<edge from-layer="33" from-port="0" to-layer="34" to-port="4" />
		<edge from-layer="34" from-port="5" to-layer="39" to-port="0" />
		<edge from-layer="35" from-port="0" to-layer="36" to-port="0" />
		<edge from-layer="36" from-port="1" to-layer="38" to-port="0" />
		<edge from-layer="37" from-port="0" to-layer="38" to-port="1" />
		<edge from-layer="38" from-port="2" to-layer="39" to-port="1" />
		<edge from-layer="39" from-port="2" to-layer="41" to-port="0" />
		<edge from-layer="40" from-port="0" to-layer="41" to-port="1" />
		<edge from-layer="41" from-port="2" to-layer="43" to-port="0" />
		<edge from-layer="42" from-port="0" to-layer="43" to-port="1" />
		<edge from-layer="43" from-port="2" to-layer="48" to-port="0" />
		<edge from-layer="44" from-port="0" to-layer="48" to-port="1" />
		<edge from-layer="45" from-port="0" to-layer="48" to-port="2" />
		<edge from-layer="46" from-port="0" to-layer="48" to-port="3" />
		<edge from-layer="47" from-port="0" to-layer="48" to-port="4" />
		<edge from-layer="48" from-port="5" to-layer="53" to-port="0" />
		<edge from-layer="49" from-port="0" to-layer="50" to-port="0" />
		<edge from-layer="50" from-port="1" to-layer="52" to-port="0" />
		<edge from-layer="51" from-port="0" to-layer="52" to-port="1" />
		<edge from-layer="52" from-port="2" to-layer="53" to-port="1" />
		<edge from-layer="53" from-port="2" to-layer="55" to-port="0" />
		<edge from-layer="54" from-port="0" to-layer="55" to-port="1" />
		<edge from-layer="55" from-port="2" to-layer="57" to-port="0" />
		<edge from-layer="56" from-port="0" to-layer="57" to-port="1" />
		<edge from-layer="57" from-port="2" to-layer="62" to-port="0" />
		<edge from-layer="58" from-port="0" to-layer="62" to-port="1" />
		<edge from-layer="59" from-port="0" to-layer="62" to-port="2" />
		<edge from-layer="60" from-port="0" to-layer="62" to-port="3" />
		<edge from-layer="61" from-port="0" to-layer="62" to-port="4" />
		<edge from-layer="62" from-port="5" to-layer="63" to-port="0" />
		<edge from-layer="63" from-port="2" to-layer="68" to-port="0" />
		<edge from-layer="64" from-port="0" to-layer="68" to-port="1" />
		<edge from-layer="65" from-port="0" to-layer="68" to-port="2" />
		<edge from-layer="66" from-port="0" to-layer="68" to-port="3" />
		<edge from-layer="67" from-port="0" to-layer="68" to-port="4" />
		<edge from-layer="68" from-port="5" to-layer="73" to-port="0" />
		<edge from-layer="69" from-port="0" to-layer="70" to-port="0" />
		<edge from-layer="70" from-port="1" to-layer="72" to-port="0" />
		<edge from-layer="71" from-port="0" to-layer="72" to-port="1" />
		<edge from-layer="72" from-port="2" to-layer="73" to-port="1" />
		<edge from-layer="73" from-port="2" to-layer="75" to-port="0" />
		<edge from-layer="74" from-port="0" to-layer="75" to-port="1" />
		<edge from-layer="75" from-port="2" to-layer="80" to-port="0" />
		<edge from-layer="76" from-port="0" to-layer="80" to-port="1" />
		<edge from-layer="77" from-port="0" to-layer="80" to-port="2" />
		<edge from-layer="78" from-port="0" to-layer="80" to-port="3" />
		<edge from-layer="79" from-port="0" to-layer="80" to-port="4" />
		<edge from-layer="80" from-port="5" to-layer="144" to-port="0" />
		<edge from-layer="80" from-port="5" to-layer="108" to-port="0" />
		<edge from-layer="81" from-port="0" to-layer="85" to-port="1" />
		<edge from-layer="82" from-port="0" to-layer="85" to-port="2" />
		<edge from-layer="83" from-port="0" to-layer="85" to-port="3" />
		<edge from-layer="84" from-port="0" to-layer="85" to-port="4" />
		<edge from-layer="85" from-port="5" to-layer="87" to-port="0" />
		<edge from-layer="86" from-port="0" to-layer="87" to-port="1" />
		<edge from-layer="87" from-port="2" to-layer="92" to-port="0" />
		<edge from-layer="87" from-port="2" to-layer="126" to-port="0" />
		<edge from-layer="88" from-port="0" to-layer="89" to-port="0" />
		<edge from-layer="89" from-port="1" to-layer="91" to-port="0" />
		<edge from-layer="90" from-port="0" to-layer="91" to-port="1" />
		<edge from-layer="91" from-port="2" to-layer="92" to-port="1" />
		<edge from-layer="92" from-port="2" to-layer="94" to-port="0" />
		<edge from-layer="93" from-port="0" to-layer="94" to-port="1" />
		<edge from-layer="94" from-port="2" to-layer="99" to-port="0" />
		<edge from-layer="95" from-port="0" to-layer="99" to-port="1" />
		<edge from-layer="96" from-port="0" to-layer="99" to-port="2" />
		<edge from-layer="97" from-port="0" to-layer="99" to-port="3" />
		<edge from-layer="98" from-port="0" to-layer="99" to-port="4" />
		<edge from-layer="99" from-port="5" to-layer="101" to-port="0" />
		<edge from-layer="100" from-port="0" to-layer="101" to-port="1" />
		<edge from-layer="101" from-port="2" to-layer="103" to-port="0" />
		<edge from-layer="102" from-port="0" to-layer="103" to-port="1" />
		<edge from-layer="103" from-port="2" to-layer="222" to-port="0" />
		<edge from-layer="103" from-port="2" to-layer="312" to-port="0" />
		<edge from-layer="103" from-port="2" to-layer="402" to-port="0" />
		<edge from-layer="103" from-port="2" to-layer="492" to-port="0" />
		<edge from-layer="103" from-port="2" to-layer="116" to-port="0" />
		<edge from-layer="103" from-port="2" to-layer="582" to-port="0" />
		<edge from-layer="104" from-port="0" to-layer="105" to-port="0" />
		<edge from-layer="105" from-port="1" to-layer="107" to-port="0" />
		<edge from-layer="106" from-port="0" to-layer="107" to-port="1" />
		<edge from-layer="107" from-port="2" to-layer="108" to-port="1" />
		<edge from-layer="108" from-port="2" to-layer="110" to-port="0" />
		<edge from-layer="109" from-port="0" to-layer="110" to-port="1" />
		<edge from-layer="110" from-port="2" to-layer="115" to-port="0" />
		<edge from-layer="111" from-port="0" to-layer="115" to-port="1" />
		<edge from-layer="112" from-port="0" to-layer="115" to-port="2" />
		<edge from-layer="113" from-port="0" to-layer="115" to-port="3" />
		<edge from-layer="114" from-port="0" to-layer="115" to-port="4" />
		<edge from-layer="115" from-port="5" to-layer="116" to-port="1" />
		<edge from-layer="116" from-port="2" to-layer="121" to-port="0" />
		<edge from-layer="117" from-port="0" to-layer="121" to-port="1" />
		<edge from-layer="118" from-port="0" to-layer="121" to-port="2" />
		<edge from-layer="119" from-port="0" to-layer="121" to-port="3" />
		<edge from-layer="120" from-port="0" to-layer="121" to-port="4" />
		<edge from-layer="121" from-port="5" to-layer="138" to-port="0" />
		<edge from-layer="122" from-port="0" to-layer="123" to-port="0" />
		<edge from-layer="123" from-port="1" to-layer="125" to-port="0" />
		<edge from-layer="124" from-port="0" to-layer="125" to-port="1" />
		<edge from-layer="125" from-port="2" to-layer="126" to-port="1" />
		<edge from-layer="126" from-port="2" to-layer="128" to-port="0" />
		<edge from-layer="127" from-port="0" to-layer="128" to-port="1" />
		<edge from-layer="128" from-port="2" to-layer="133" to-port="0" />
		<edge from-layer="129" from-port="0" to-layer="133" to-port="1" />
		<edge from-layer="130" from-port="0" to-layer="133" to-port="2" />
		<edge from-layer="131" from-port="0" to-layer="133" to-port="3" />
		<edge from-layer="132" from-port="0" to-layer="133" to-port="4" />
		<edge from-layer="133" from-port="5" to-layer="135" to-port="0" />
		<edge from-layer="134" from-port="0" to-layer="135" to-port="1" />
		<edge from-layer="135" from-port="2" to-layer="137" to-port="0" />
		<edge from-layer="136" from-port="0" to-layer="137" to-port="1" />
		<edge from-layer="137" from-port="2" to-layer="588" to-port="1" />
		<edge from-layer="137" from-port="2" to-layer="228" to-port="1" />
		<edge from-layer="137" from-port="2" to-layer="138" to-port="1" />
		<edge from-layer="137" from-port="2" to-layer="318" to-port="1" />
		<edge from-layer="137" from-port="2" to-layer="408" to-port="1" />
		<edge from-layer="137" from-port="2" to-layer="498" to-port="1" />
		<edge from-layer="138" from-port="2" to-layer="143" to-port="0" />
		<edge from-layer="139" from-port="0" to-layer="143" to-port="1" />
		<edge from-layer="140" from-port="0" to-layer="143" to-port="2" />
		<edge from-layer="141" from-port="0" to-layer="143" to-port="3" />
		<edge from-layer="142" from-port="0" to-layer="143" to-port="4" />
		<edge from-layer="143" from-port="5" to-layer="144" to-port="1" />
		<edge from-layer="144" from-port="2" to-layer="149" to-port="0" />
		<edge from-layer="145" from-port="0" to-layer="149" to-port="1" />
		<edge from-layer="146" from-port="0" to-layer="149" to-port="2" />
		<edge from-layer="147" from-port="0" to-layer="149" to-port="3" />
		<edge from-layer="148" from-port="0" to-layer="149" to-port="4" />
		<edge from-layer="149" from-port="5" to-layer="154" to-port="0" />
		<edge from-layer="149" from-port="5" to-layer="192" to-port="1" />
		<edge from-layer="150" from-port="0" to-layer="151" to-port="0" />
		<edge from-layer="151" from-port="1" to-layer="153" to-port="0" />
		<edge from-layer="152" from-port="0" to-layer="153" to-port="1" />
		<edge from-layer="153" from-port="2" to-layer="154" to-port="1" />
		<edge from-layer="154" from-port="2" to-layer="156" to-port="0" />
		<edge from-layer="155" from-port="0" to-layer="156" to-port="1" />
		<edge from-layer="156" from-port="2" to-layer="158" to-port="0" />
		<edge from-layer="157" from-port="0" to-layer="158" to-port="1" />
		<edge from-layer="158" from-port="2" to-layer="163" to-port="0" />
		<edge from-layer="159" from-port="0" to-layer="163" to-port="1" />
		<edge from-layer="160" from-port="0" to-layer="163" to-port="2" />
		<edge from-layer="161" from-port="0" to-layer="163" to-port="3" />
		<edge from-layer="162" from-port="0" to-layer="163" to-port="4" />
		<edge from-layer="163" from-port="5" to-layer="168" to-port="0" />
		<edge from-layer="164" from-port="0" to-layer="165" to-port="0" />
		<edge from-layer="165" from-port="1" to-layer="167" to-port="0" />
		<edge from-layer="166" from-port="0" to-layer="167" to-port="1" />
		<edge from-layer="167" from-port="2" to-layer="168" to-port="1" />
		<edge from-layer="168" from-port="2" to-layer="170" to-port="0" />
		<edge from-layer="169" from-port="0" to-layer="170" to-port="1" />
		<edge from-layer="170" from-port="2" to-layer="172" to-port="0" />
		<edge from-layer="171" from-port="0" to-layer="172" to-port="1" />
		<edge from-layer="172" from-port="2" to-layer="177" to-port="0" />
		<edge from-layer="173" from-port="0" to-layer="177" to-port="1" />
		<edge from-layer="174" from-port="0" to-layer="177" to-port="2" />
		<edge from-layer="175" from-port="0" to-layer="177" to-port="3" />
		<edge from-layer="176" from-port="0" to-layer="177" to-port="4" />
		<edge from-layer="177" from-port="5" to-layer="182" to-port="0" />
		<edge from-layer="178" from-port="0" to-layer="179" to-port="0" />
		<edge from-layer="179" from-port="1" to-layer="181" to-port="0" />
		<edge from-layer="180" from-port="0" to-layer="181" to-port="1" />
		<edge from-layer="181" from-port="2" to-layer="182" to-port="1" />
		<edge from-layer="182" from-port="2" to-layer="184" to-port="0" />
		<edge from-layer="183" from-port="0" to-layer="184" to-port="1" />
		<edge from-layer="184" from-port="2" to-layer="186" to-port="0" />
		<edge from-layer="185" from-port="0" to-layer="186" to-port="1" />
		<edge from-layer="186" from-port="2" to-layer="191" to-port="0" />
		<edge from-layer="187" from-port="0" to-layer="191" to-port="1" />
		<edge from-layer="188" from-port="0" to-layer="191" to-port="2" />
		<edge from-layer="189" from-port="0" to-layer="191" to-port="3" />
		<edge from-layer="190" from-port="0" to-layer="191" to-port="4" />
		<edge from-layer="191" from-port="5" to-layer="192" to-port="0" />
		<edge from-layer="192" from-port="2" to-layer="197" to-port="0" />
		<edge from-layer="193" from-port="0" to-layer="197" to-port="1" />
		<edge from-layer="194" from-port="0" to-layer="197" to-port="2" />
		<edge from-layer="195" from-port="0" to-layer="197" to-port="3" />
		<edge from-layer="196" from-port="0" to-layer="197" to-port="4" />
		<edge from-layer="197" from-port="5" to-layer="202" to-port="0" />
		<edge from-layer="198" from-port="0" to-layer="199" to-port="0" />
		<edge from-layer="199" from-port="1" to-layer="201" to-port="0" />
		<edge from-layer="200" from-port="0" to-layer="201" to-port="1" />
		<edge from-layer="201" from-port="2" to-layer="202" to-port="1" />
		<edge from-layer="202" from-port="2" to-layer="204" to-port="0" />
		<edge from-layer="203" from-port="0" to-layer="204" to-port="1" />
		<edge from-layer="204" from-port="2" to-layer="209" to-port="0" />
		<edge from-layer="205" from-port="0" to-layer="209" to-port="1" />
		<edge from-layer="206" from-port="0" to-layer="209" to-port="2" />
		<edge from-layer="207" from-port="0" to-layer="209" to-port="3" />
		<edge from-layer="208" from-port="0" to-layer="209" to-port="4" />
		<edge from-layer="209" from-port="5" to-layer="214" to-port="0" />
		<edge from-layer="209" from-port="5" to-layer="234" to-port="0" />
		<edge from-layer="210" from-port="0" to-layer="211" to-port="0" />
		<edge from-layer="211" from-port="1" to-layer="213" to-port="0" />
		<edge from-layer="212" from-port="0" to-layer="213" to-port="1" />
		<edge from-layer="213" from-port="2" to-layer="214" to-port="1" />
		<edge from-layer="214" from-port="2" to-layer="216" to-port="0" />
		<edge from-layer="215" from-port="0" to-layer="216" to-port="1" />
		<edge from-layer="216" from-port="2" to-layer="221" to-port="0" />
		<edge from-layer="217" from-port="0" to-layer="221" to-port="1" />
		<edge from-layer="218" from-port="0" to-layer="221" to-port="2" />
		<edge from-layer="219" from-port="0" to-layer="221" to-port="3" />
		<edge from-layer="220" from-port="0" to-layer="221" to-port="4" />
		<edge from-layer="221" from-port="5" to-layer="222" to-port="1" />
		<edge from-layer="222" from-port="2" to-layer="227" to-port="0" />
		<edge from-layer="223" from-port="0" to-layer="227" to-port="1" />
		<edge from-layer="224" from-port="0" to-layer="227" to-port="2" />
		<edge from-layer="225" from-port="0" to-layer="227" to-port="3" />
		<edge from-layer="226" from-port="0" to-layer="227" to-port="4" />
		<edge from-layer="227" from-port="5" to-layer="228" to-port="0" />
		<edge from-layer="228" from-port="2" to-layer="233" to-port="0" />
		<edge from-layer="229" from-port="0" to-layer="233" to-port="1" />
		<edge from-layer="230" from-port="0" to-layer="233" to-port="2" />
		<edge from-layer="231" from-port="0" to-layer="233" to-port="3" />
		<edge from-layer="232" from-port="0" to-layer="233" to-port="4" />
		<edge from-layer="233" from-port="5" to-layer="234" to-port="1" />
		<edge from-layer="234" from-port="2" to-layer="239" to-port="0" />
		<edge from-layer="235" from-port="0" to-layer="239" to-port="1" />
		<edge from-layer="236" from-port="0" to-layer="239" to-port="2" />
		<edge from-layer="237" from-port="0" to-layer="239" to-port="3" />
		<edge from-layer="238" from-port="0" to-layer="239" to-port="4" />
		<edge from-layer="239" from-port="5" to-layer="244" to-port="0" />
		<edge from-layer="239" from-port="5" to-layer="282" to-port="1" />
		<edge from-layer="240" from-port="0" to-layer="241" to-port="0" />
		<edge from-layer="241" from-port="1" to-layer="243" to-port="0" />
		<edge from-layer="242" from-port="0" to-layer="243" to-port="1" />
		<edge from-layer="243" from-port="2" to-layer="244" to-port="1" />
		<edge from-layer="244" from-port="2" to-layer="246" to-port="0" />
		<edge from-layer="245" from-port="0" to-layer="246" to-port="1" />
		<edge from-layer="246" from-port="2" to-layer="248" to-port="0" />
		<edge from-layer="247" from-port="0" to-layer="248" to-port="1" />
		<edge from-layer="248" from-port="2" to-layer="253" to-port="0" />
		<edge from-layer="249" from-port="0" to-layer="253" to-port="1" />
		<edge from-layer="250" from-port="0" to-layer="253" to-port="2" />
		<edge from-layer="251" from-port="0" to-layer="253" to-port="3" />
		<edge from-layer="252" from-port="0" to-layer="253" to-port="4" />
		<edge from-layer="253" from-port="5" to-layer="258" to-port="0" />
		<edge from-layer="254" from-port="0" to-layer="255" to-port="0" />
		<edge from-layer="255" from-port="1" to-layer="257" to-port="0" />
		<edge from-layer="256" from-port="0" to-layer="257" to-port="1" />
		<edge from-layer="257" from-port="2" to-layer="258" to-port="1" />
		<edge from-layer="258" from-port="2" to-layer="260" to-port="0" />
		<edge from-layer="259" from-port="0" to-layer="260" to-port="1" />
		<edge from-layer="260" from-port="2" to-layer="262" to-port="0" />
		<edge from-layer="261" from-port="0" to-layer="262" to-port="1" />
		<edge from-layer="262" from-port="2" to-layer="267" to-port="0" />
		<edge from-layer="263" from-port="0" to-layer="267" to-port="1" />
		<edge from-layer="264" from-port="0" to-layer="267" to-port="2" />
		<edge from-layer="265" from-port="0" to-layer="267" to-port="3" />
		<edge from-layer="266" from-port="0" to-layer="267" to-port="4" />
		<edge from-layer="267" from-port="5" to-layer="272" to-port="0" />
		<edge from-layer="268" from-port="0" to-layer="269" to-port="0" />
		<edge from-layer="269" from-port="1" to-layer="271" to-port="0" />
		<edge from-layer="270" from-port="0" to-layer="271" to-port="1" />
		<edge from-layer="271" from-port="2" to-layer="272" to-port="1" />
		<edge from-layer="272" from-port="2" to-layer="274" to-port="0" />
		<edge from-layer="273" from-port="0" to-layer="274" to-port="1" />
		<edge from-layer="274" from-port="2" to-layer="276" to-port="0" />
		<edge from-layer="275" from-port="0" to-layer="276" to-port="1" />
		<edge from-layer="276" from-port="2" to-layer="281" to-port="0" />
		<edge from-layer="277" from-port="0" to-layer="281" to-port="1" />
		<edge from-layer="278" from-port="0" to-layer="281" to-port="2" />
		<edge from-layer="279" from-port="0" to-layer="281" to-port="3" />
		<edge from-layer="280" from-port="0" to-layer="281" to-port="4" />
		<edge from-layer="281" from-port="5" to-layer="282" to-port="0" />
		<edge from-layer="282" from-port="2" to-layer="287" to-port="0" />
		<edge from-layer="283" from-port="0" to-layer="287" to-port="1" />
		<edge from-layer="284" from-port="0" to-layer="287" to-port="2" />
		<edge from-layer="285" from-port="0" to-layer="287" to-port="3" />
		<edge from-layer="286" from-port="0" to-layer="287" to-port="4" />
		<edge from-layer="287" from-port="5" to-layer="292" to-port="0" />
		<edge from-layer="288" from-port="0" to-layer="289" to-port="0" />
		<edge from-layer="289" from-port="1" to-layer="291" to-port="0" />
		<edge from-layer="290" from-port="0" to-layer="291" to-port="1" />
		<edge from-layer="291" from-port="2" to-layer="292" to-port="1" />
		<edge from-layer="292" from-port="2" to-layer="294" to-port="0" />
		<edge from-layer="293" from-port="0" to-layer="294" to-port="1" />
		<edge from-layer="294" from-port="2" to-layer="299" to-port="0" />
		<edge from-layer="295" from-port="0" to-layer="299" to-port="1" />
		<edge from-layer="296" from-port="0" to-layer="299" to-port="2" />
		<edge from-layer="297" from-port="0" to-layer="299" to-port="3" />
		<edge from-layer="298" from-port="0" to-layer="299" to-port="4" />
		<edge from-layer="299" from-port="5" to-layer="324" to-port="0" />
		<edge from-layer="299" from-port="5" to-layer="304" to-port="0" />
		<edge from-layer="300" from-port="0" to-layer="301" to-port="0" />
		<edge from-layer="301" from-port="1" to-layer="303" to-port="0" />
		<edge from-layer="302" from-port="0" to-layer="303" to-port="1" />
		<edge from-layer="303" from-port="2" to-layer="304" to-port="1" />
		<edge from-layer="304" from-port="2" to-layer="306" to-port="0" />
		<edge from-layer="305" from-port="0" to-layer="306" to-port="1" />
		<edge from-layer="306" from-port="2" to-layer="311" to-port="0" />
		<edge from-layer="307" from-port="0" to-layer="311" to-port="1" />
		<edge from-layer="308" from-port="0" to-layer="311" to-port="2" />
		<edge from-layer="309" from-port="0" to-layer="311" to-port="3" />
		<edge from-layer="310" from-port="0" to-layer="311" to-port="4" />
		<edge from-layer="311" from-port="5" to-layer="312" to-port="1" />
		<edge from-layer="312" from-port="2" to-layer="317" to-port="0" />
		<edge from-layer="313" from-port="0" to-layer="317" to-port="1" />
		<edge from-layer="314" from-port="0" to-layer="317" to-port="2" />
		<edge from-layer="315" from-port="0" to-layer="317" to-port="3" />
		<edge from-layer="316" from-port="0" to-layer="317" to-port="4" />
		<edge from-layer="317" from-port="5" to-layer="318" to-port="0" />
		<edge from-layer="318" from-port="2" to-layer="323" to-port="0" />
		<edge from-layer="319" from-port="0" to-layer="323" to-port="1" />
		<edge from-layer="320" from-port="0" to-layer="323" to-port="2" />
		<edge from-layer="321" from-port="0" to-layer="323" to-port="3" />
		<edge from-layer="322" from-port="0" to-layer="323" to-port="4" />
		<edge from-layer="323" from-port="5" to-layer="324" to-port="1" />
		<edge from-layer="324" from-port="2" to-layer="329" to-port="0" />
		<edge from-layer="325" from-port="0" to-layer="329" to-port="1" />
		<edge from-layer="326" from-port="0" to-layer="329" to-port="2" />
		<edge from-layer="327" from-port="0" to-layer="329" to-port="3" />
		<edge from-layer="328" from-port="0" to-layer="329" to-port="4" />
		<edge from-layer="329" from-port="5" to-layer="334" to-port="0" />
		<edge from-layer="329" from-port="5" to-layer="372" to-port="1" />
		<edge from-layer="330" from-port="0" to-layer="331" to-port="0" />
		<edge from-layer="331" from-port="1" to-layer="333" to-port="0" />
		<edge from-layer="332" from-port="0" to-layer="333" to-port="1" />
		<edge from-layer="333" from-port="2" to-layer="334" to-port="1" />
		<edge from-layer="334" from-port="2" to-layer="336" to-port="0" />
		<edge from-layer="335" from-port="0" to-layer="336" to-port="1" />
		<edge from-layer="336" from-port="2" to-layer="338" to-port="0" />
		<edge from-layer="337" from-port="0" to-layer="338" to-port="1" />
		<edge from-layer="338" from-port="2" to-layer="343" to-port="0" />
		<edge from-layer="339" from-port="0" to-layer="343" to-port="1" />
		<edge from-layer="340" from-port="0" to-layer="343" to-port="2" />
		<edge from-layer="341" from-port="0" to-layer="343" to-port="3" />
		<edge from-layer="342" from-port="0" to-layer="343" to-port="4" />
		<edge from-layer="343" from-port="5" to-layer="348" to-port="0" />
		<edge from-layer="344" from-port="0" to-layer="345" to-port="0" />
		<edge from-layer="345" from-port="1" to-layer="347" to-port="0" />
		<edge from-layer="346" from-port="0" to-layer="347" to-port="1" />
		<edge from-layer="347" from-port="2" to-layer="348" to-port="1" />
		<edge from-layer="348" from-port="2" to-layer="350" to-port="0" />
		<edge from-layer="349" from-port="0" to-layer="350" to-port="1" />
		<edge from-layer="350" from-port="2" to-layer="352" to-port="0" />
		<edge from-layer="351" from-port="0" to-layer="352" to-port="1" />
		<edge from-layer="352" from-port="2" to-layer="357" to-port="0" />
		<edge from-layer="353" from-port="0" to-layer="357" to-port="1" />
		<edge from-layer="354" from-port="0" to-layer="357" to-port="2" />
		<edge from-layer="355" from-port="0" to-layer="357" to-port="3" />
		<edge from-layer="356" from-port="0" to-layer="357" to-port="4" />
		<edge from-layer="357" from-port="5" to-layer="362" to-port="0" />
		<edge from-layer="358" from-port="0" to-layer="359" to-port="0" />
		<edge from-layer="359" from-port="1" to-layer="361" to-port="0" />
		<edge from-layer="360" from-port="0" to-layer="361" to-port="1" />
		<edge from-layer="361" from-port="2" to-layer="362" to-port="1" />
		<edge from-layer="362" from-port="2" to-layer="364" to-port="0" />
		<edge from-layer="363" from-port="0" to-layer="364" to-port="1" />
		<edge from-layer="364" from-port="2" to-layer="366" to-port="0" />
		<edge from-layer="365" from-port="0" to-layer="366" to-port="1" />
		<edge from-layer="366" from-port="2" to-layer="371" to-port="0" />
		<edge from-layer="367" from-port="0" to-layer="371" to-port="1" />
		<edge from-layer="368" from-port="0" to-layer="371" to-port="2" />
		<edge from-layer="369" from-port="0" to-layer="371" to-port="3" />
		<edge from-layer="370" from-port="0" to-layer="371" to-port="4" />
		<edge from-layer="371" from-port="5" to-layer="372" to-port="0" />
		<edge from-layer="372" from-port="2" to-layer="377" to-port="0" />
		<edge from-layer="373" from-port="0" to-layer="377" to-port="1" />
		<edge from-layer="374" from-port="0" to-layer="377" to-port="2" />
		<edge from-layer="375" from-port="0" to-layer="377" to-port="3" />
		<edge from-layer="376" from-port="0" to-layer="377" to-port="4" />
		<edge from-layer="377" from-port="5" to-layer="382" to-port="0" />
		<edge from-layer="378" from-port="0" to-layer="379" to-port="0" />
		<edge from-layer="379" from-port="1" to-layer="381" to-port="0" />
		<edge from-layer="380" from-port="0" to-layer="381" to-port="1" />
		<edge from-layer="381" from-port="2" to-layer="382" to-port="1" />
		<edge from-layer="382" from-port="2" to-layer="384" to-port="0" />
		<edge from-layer="383" from-port="0" to-layer="384" to-port="1" />
		<edge from-layer="384" from-port="2" to-layer="389" to-port="0" />
		<edge from-layer="385" from-port="0" to-layer="389" to-port="1" />
		<edge from-layer="386" from-port="0" to-layer="389" to-port="2" />
		<edge from-layer="387" from-port="0" to-layer="389" to-port="3" />
		<edge from-layer="388" from-port="0" to-layer="389" to-port="4" />
		<edge from-layer="389" from-port="5" to-layer="394" to-port="0" />
		<edge from-layer="389" from-port="5" to-layer="414" to-port="0" />
		<edge from-layer="390" from-port="0" to-layer="391" to-port="0" />
		<edge from-layer="391" from-port="1" to-layer="393" to-port="0" />
		<edge from-layer="392" from-port="0" to-layer="393" to-port="1" />
		<edge from-layer="393" from-port="2" to-layer="394" to-port="1" />
		<edge from-layer="394" from-port="2" to-layer="396" to-port="0" />
		<edge from-layer="395" from-port="0" to-layer="396" to-port="1" />
		<edge from-layer="396" from-port="2" to-layer="401" to-port="0" />
		<edge from-layer="397" from-port="0" to-layer="401" to-port="1" />
		<edge from-layer="398" from-port="0" to-layer="401" to-port="2" />
		<edge from-layer="399" from-port="0" to-layer="401" to-port="3" />
		<edge from-layer="400" from-port="0" to-layer="401" to-port="4" />
		<edge from-layer="401" from-port="5" to-layer="402" to-port="1" />
		<edge from-layer="402" from-port="2" to-layer="407" to-port="0" />
		<edge from-layer="403" from-port="0" to-layer="407" to-port="1" />
		<edge from-layer="404" from-port="0" to-layer="407" to-port="2" />
		<edge from-layer="405" from-port="0" to-layer="407" to-port="3" />
		<edge from-layer="406" from-port="0" to-layer="407" to-port="4" />
		<edge from-layer="407" from-port="5" to-layer="408" to-port="0" />
		<edge from-layer="408" from-port="2" to-layer="413" to-port="0" />
		<edge from-layer="409" from-port="0" to-layer="413" to-port="1" />
		<edge from-layer="410" from-port="0" to-layer="413" to-port="2" />
		<edge from-layer="411" from-port="0" to-layer="413" to-port="3" />
		<edge from-layer="412" from-port="0" to-layer="413" to-port="4" />
		<edge from-layer="413" from-port="5" to-layer="414" to-port="1" />
		<edge from-layer="414" from-port="2" to-layer="419" to-port="0" />
		<edge from-layer="415" from-port="0" to-layer="419" to-port="1" />
		<edge from-layer="416" from-port="0" to-layer="419" to-port="2" />
		<edge from-layer="417" from-port="0" to-layer="419" to-port="3" />
		<edge from-layer="418" from-port="0" to-layer="419" to-port="4" />
		<edge from-layer="419" from-port="5" to-layer="462" to-port="1" />
		<edge from-layer="419" from-port="5" to-layer="424" to-port="0" />
		<edge from-layer="420" from-port="0" to-layer="421" to-port="0" />
		<edge from-layer="421" from-port="1" to-layer="423" to-port="0" />
		<edge from-layer="422" from-port="0" to-layer="423" to-port="1" />
		<edge from-layer="423" from-port="2" to-layer="424" to-port="1" />
		<edge from-layer="424" from-port="2" to-layer="426" to-port="0" />
		<edge from-layer="425" from-port="0" to-layer="426" to-port="1" />
		<edge from-layer="426" from-port="2" to-layer="428" to-port="0" />
		<edge from-layer="427" from-port="0" to-layer="428" to-port="1" />
		<edge from-layer="428" from-port="2" to-layer="433" to-port="0" />
		<edge from-layer="429" from-port="0" to-layer="433" to-port="1" />
		<edge from-layer="430" from-port="0" to-layer="433" to-port="2" />
		<edge from-layer="431" from-port="0" to-layer="433" to-port="3" />
		<edge from-layer="432" from-port="0" to-layer="433" to-port="4" />
		<edge from-layer="433" from-port="5" to-layer="438" to-port="0" />
		<edge from-layer="434" from-port="0" to-layer="435" to-port="0" />
		<edge from-layer="435" from-port="1" to-layer="437" to-port="0" />
		<edge from-layer="436" from-port="0" to-layer="437" to-port="1" />
		<edge from-layer="437" from-port="2" to-layer="438" to-port="1" />
		<edge from-layer="438" from-port="2" to-layer="440" to-port="0" />
		<edge from-layer="439" from-port="0" to-layer="440" to-port="1" />
		<edge from-layer="440" from-port="2" to-layer="442" to-port="0" />
		<edge from-layer="441" from-port="0" to-layer="442" to-port="1" />
		<edge from-layer="442" from-port="2" to-layer="447" to-port="0" />
		<edge from-layer="443" from-port="0" to-layer="447" to-port="1" />
		<edge from-layer="444" from-port="0" to-layer="447" to-port="2" />
		<edge from-layer="445" from-port="0" to-layer="447" to-port="3" />
		<edge from-layer="446" from-port="0" to-layer="447" to-port="4" />
		<edge from-layer="447" from-port="5" to-layer="452" to-port="0" />
		<edge from-layer="448" from-port="0" to-layer="449" to-port="0" />
		<edge from-layer="449" from-port="1" to-layer="451" to-port="0" />
		<edge from-layer="450" from-port="0" to-layer="451" to-port="1" />
		<edge from-layer="451" from-port="2" to-layer="452" to-port="1" />
		<edge from-layer="452" from-port="2" to-layer="454" to-port="0" />
		<edge from-layer="453" from-port="0" to-layer="454" to-port="1" />
		<edge from-layer="454" from-port="2" to-layer="456" to-port="0" />
		<edge from-layer="455" from-port="0" to-layer="456" to-port="1" />
		<edge from-layer="456" from-port="2" to-layer="461" to-port="0" />
		<edge from-layer="457" from-port="0" to-layer="461" to-port="1" />
		<edge from-layer="458" from-port="0" to-layer="461" to-port="2" />
		<edge from-layer="459" from-port="0" to-layer="461" to-port="3" />
		<edge from-layer="460" from-port="0" to-layer="461" to-port="4" />
		<edge from-layer="461" from-port="5" to-layer="462" to-port="0" />
		<edge from-layer="462" from-port="2" to-layer="467" to-port="0" />
		<edge from-layer="463" from-port="0" to-layer="467" to-port="1" />
		<edge from-layer="464" from-port="0" to-layer="467" to-port="2" />
		<edge from-layer="465" from-port="0" to-layer="467" to-port="3" />
		<edge from-layer="466" from-port="0" to-layer="467" to-port="4" />
		<edge from-layer="467" from-port="5" to-layer="472" to-port="0" />
		<edge from-layer="468" from-port="0" to-layer="469" to-port="0" />
		<edge from-layer="469" from-port="1" to-layer="471" to-port="0" />
		<edge from-layer="470" from-port="0" to-layer="471" to-port="1" />
		<edge from-layer="471" from-port="2" to-layer="472" to-port="1" />
		<edge from-layer="472" from-port="2" to-layer="474" to-port="0" />
		<edge from-layer="473" from-port="0" to-layer="474" to-port="1" />
		<edge from-layer="474" from-port="2" to-layer="479" to-port="0" />
		<edge from-layer="475" from-port="0" to-layer="479" to-port="1" />
		<edge from-layer="476" from-port="0" to-layer="479" to-port="2" />
		<edge from-layer="477" from-port="0" to-layer="479" to-port="3" />
		<edge from-layer="478" from-port="0" to-layer="479" to-port="4" />
		<edge from-layer="479" from-port="5" to-layer="504" to-port="0" />
		<edge from-layer="479" from-port="5" to-layer="484" to-port="0" />
		<edge from-layer="480" from-port="0" to-layer="481" to-port="0" />
		<edge from-layer="481" from-port="1" to-layer="483" to-port="0" />
		<edge from-layer="482" from-port="0" to-layer="483" to-port="1" />
		<edge from-layer="483" from-port="2" to-layer="484" to-port="1" />
		<edge from-layer="484" from-port="2" to-layer="486" to-port="0" />
		<edge from-layer="485" from-port="0" to-layer="486" to-port="1" />
		<edge from-layer="486" from-port="2" to-layer="491" to-port="0" />
		<edge from-layer="487" from-port="0" to-layer="491" to-port="1" />
		<edge from-layer="488" from-port="0" to-layer="491" to-port="2" />
		<edge from-layer="489" from-port="0" to-layer="491" to-port="3" />
		<edge from-layer="490" from-port="0" to-layer="491" to-port="4" />
		<edge from-layer="491" from-port="5" to-layer="492" to-port="1" />
		<edge from-layer="492" from-port="2" to-layer="497" to-port="0" />
		<edge from-layer="493" from-port="0" to-layer="497" to-port="1" />
		<edge from-layer="494" from-port="0" to-layer="497" to-port="2" />
		<edge from-layer="495" from-port="0" to-layer="497" to-port="3" />
		<edge from-layer="496" from-port="0" to-layer="497" to-port="4" />
		<edge from-layer="497" from-port="5" to-layer="498" to-port="0" />
		<edge from-layer="498" from-port="2" to-layer="503" to-port="0" />
		<edge from-layer="499" from-port="0" to-layer="503" to-port="1" />
		<edge from-layer="500" from-port="0" to-layer="503" to-port="2" />
		<edge from-layer="501" from-port="0" to-layer="503" to-port="3" />
		<edge from-layer="502" from-port="0" to-layer="503" to-port="4" />
		<edge from-layer="503" from-port="5" to-layer="504" to-port="1" />
		<edge from-layer="504" from-port="2" to-layer="509" to-port="0" />
		<edge from-layer="505" from-port="0" to-layer="509" to-port="1" />
		<edge from-layer="506" from-port="0" to-layer="509" to-port="2" />
		<edge from-layer="507" from-port="0" to-layer="509" to-port="3" />
		<edge from-layer="508" from-port="0" to-layer="509" to-port="4" />
		<edge from-layer="509" from-port="5" to-layer="514" to-port="0" />
		<edge from-layer="509" from-port="5" to-layer="552" to-port="1" />
		<edge from-layer="510" from-port="0" to-layer="511" to-port="0" />
		<edge from-layer="511" from-port="1" to-layer="513" to-port="0" />
		<edge from-layer="512" from-port="0" to-layer="513" to-port="1" />
		<edge from-layer="513" from-port="2" to-layer="514" to-port="1" />
		<edge from-layer="514" from-port="2" to-layer="516" to-port="0" />
		<edge from-layer="515" from-port="0" to-layer="516" to-port="1" />
		<edge from-layer="516" from-port="2" to-layer="518" to-port="0" />
		<edge from-layer="517" from-port="0" to-layer="518" to-port="1" />
		<edge from-layer="518" from-port="2" to-layer="523" to-port="0" />
		<edge from-layer="519" from-port="0" to-layer="523" to-port="1" />
		<edge from-layer="520" from-port="0" to-layer="523" to-port="2" />
		<edge from-layer="521" from-port="0" to-layer="523" to-port="3" />
		<edge from-layer="522" from-port="0" to-layer="523" to-port="4" />
		<edge from-layer="523" from-port="5" to-layer="528" to-port="0" />
		<edge from-layer="524" from-port="0" to-layer="525" to-port="0" />
		<edge from-layer="525" from-port="1" to-layer="527" to-port="0" />
		<edge from-layer="526" from-port="0" to-layer="527" to-port="1" />
		<edge from-layer="527" from-port="2" to-layer="528" to-port="1" />
		<edge from-layer="528" from-port="2" to-layer="530" to-port="0" />
		<edge from-layer="529" from-port="0" to-layer="530" to-port="1" />
		<edge from-layer="530" from-port="2" to-layer="532" to-port="0" />
		<edge from-layer="531" from-port="0" to-layer="532" to-port="1" />
		<edge from-layer="532" from-port="2" to-layer="537" to-port="0" />
		<edge from-layer="533" from-port="0" to-layer="537" to-port="1" />
		<edge from-layer="534" from-port="0" to-layer="537" to-port="2" />
		<edge from-layer="535" from-port="0" to-layer="537" to-port="3" />
		<edge from-layer="536" from-port="0" to-layer="537" to-port="4" />
		<edge from-layer="537" from-port="5" to-layer="542" to-port="0" />
		<edge from-layer="538" from-port="0" to-layer="539" to-port="0" />
		<edge from-layer="539" from-port="1" to-layer="541" to-port="0" />
		<edge from-layer="540" from-port="0" to-layer="541" to-port="1" />
		<edge from-layer="541" from-port="2" to-layer="542" to-port="1" />
		<edge from-layer="542" from-port="2" to-layer="544" to-port="0" />
		<edge from-layer="543" from-port="0" to-layer="544" to-port="1" />
		<edge from-layer="544" from-port="2" to-layer="546" to-port="0" />
		<edge from-layer="545" from-port="0" to-layer="546" to-port="1" />
		<edge from-layer="546" from-port="2" to-layer="551" to-port="0" />
		<edge from-layer="547" from-port="0" to-layer="551" to-port="1" />
		<edge from-layer="548" from-port="0" to-layer="551" to-port="2" />
		<edge from-layer="549" from-port="0" to-layer="551" to-port="3" />
		<edge from-layer="550" from-port="0" to-layer="551" to-port="4" />
		<edge from-layer="551" from-port="5" to-layer="552" to-port="0" />
		<edge from-layer="552" from-port="2" to-layer="557" to-port="0" />
		<edge from-layer="553" from-port="0" to-layer="557" to-port="1" />
		<edge from-layer="554" from-port="0" to-layer="557" to-port="2" />
		<edge from-layer="555" from-port="0" to-layer="557" to-port="3" />
		<edge from-layer="556" from-port="0" to-layer="557" to-port="4" />
		<edge from-layer="557" from-port="5" to-layer="562" to-port="0" />
		<edge from-layer="558" from-port="0" to-layer="559" to-port="0" />
		<edge from-layer="559" from-port="1" to-layer="561" to-port="0" />
		<edge from-layer="560" from-port="0" to-layer="561" to-port="1" />
		<edge from-layer="561" from-port="2" to-layer="562" to-port="1" />
		<edge from-layer="562" from-port="2" to-layer="564" to-port="0" />
		<edge from-layer="563" from-port="0" to-layer="564" to-port="1" />
		<edge from-layer="564" from-port="2" to-layer="569" to-port="0" />
		<edge from-layer="565" from-port="0" to-layer="569" to-port="1" />
		<edge from-layer="566" from-port="0" to-layer="569" to-port="2" />
		<edge from-layer="567" from-port="0" to-layer="569" to-port="3" />
		<edge from-layer="568" from-port="0" to-layer="569" to-port="4" />
		<edge from-layer="569" from-port="5" to-layer="574" to-port="0" />
		<edge from-layer="569" from-port="5" to-layer="594" to-port="0" />
		<edge from-layer="570" from-port="0" to-layer="571" to-port="0" />
		<edge from-layer="571" from-port="1" to-layer="573" to-port="0" />
		<edge from-layer="572" from-port="0" to-layer="573" to-port="1" />
		<edge from-layer="573" from-port="2" to-layer="574" to-port="1" />
		<edge from-layer="574" from-port="2" to-layer="576" to-port="0" />
		<edge from-layer="575" from-port="0" to-layer="576" to-port="1" />
		<edge from-layer="576" from-port="2" to-layer="581" to-port="0" />
		<edge from-layer="577" from-port="0" to-layer="581" to-port="1" />
		<edge from-layer="578" from-port="0" to-layer="581" to-port="2" />
		<edge from-layer="579" from-port="0" to-layer="581" to-port="3" />
		<edge from-layer="580" from-port="0" to-layer="581" to-port="4" />
		<edge from-layer="581" from-port="5" to-layer="582" to-port="1" />
		<edge from-layer="582" from-port="2" to-layer="587" to-port="0" />
		<edge from-layer="583" from-port="0" to-layer="587" to-port="1" />
		<edge from-layer="584" from-port="0" to-layer="587" to-port="2" />
		<edge from-layer="585" from-port="0" to-layer="587" to-port="3" />
		<edge from-layer="586" from-port="0" to-layer="587" to-port="4" />
		<edge from-layer="587" from-port="5" to-layer="588" to-port="0" />
		<edge from-layer="588" from-port="2" to-layer="593" to-port="0" />
		<edge from-layer="589" from-port="0" to-layer="593" to-port="1" />
		<edge from-layer="590" from-port="0" to-layer="593" to-port="2" />
		<edge from-layer="591" from-port="0" to-layer="593" to-port="3" />
		<edge from-layer="592" from-port="0" to-layer="593" to-port="4" />
		<edge from-layer="593" from-port="5" to-layer="594" to-port="1" />
		<edge from-layer="594" from-port="2" to-layer="599" to-port="0" />
		<edge from-layer="595" from-port="0" to-layer="599" to-port="1" />
		<edge from-layer="596" from-port="0" to-layer="599" to-port="2" />
		<edge from-layer="597" from-port="0" to-layer="599" to-port="3" />
		<edge from-layer="598" from-port="0" to-layer="599" to-port="4" />
		<edge from-layer="599" from-port="5" to-layer="600" to-port="1" />
		<edge from-layer="600" from-port="2" to-layer="605" to-port="0" />
		<edge from-layer="601" from-port="0" to-layer="605" to-port="1" />
		<edge from-layer="602" from-port="0" to-layer="605" to-port="2" />
		<edge from-layer="603" from-port="0" to-layer="605" to-port="3" />
		<edge from-layer="604" from-port="0" to-layer="605" to-port="4" />
		<edge from-layer="605" from-port="5" to-layer="610" to-port="0" />
		<edge from-layer="606" from-port="0" to-layer="607" to-port="0" />
		<edge from-layer="607" from-port="1" to-layer="609" to-port="0" />
		<edge from-layer="608" from-port="0" to-layer="609" to-port="1" />
		<edge from-layer="609" from-port="2" to-layer="610" to-port="1" />
		<edge from-layer="610" from-port="2" to-layer="612" to-port="0" />
		<edge from-layer="611" from-port="0" to-layer="612" to-port="1" />
		<edge from-layer="612" from-port="2" to-layer="614" to-port="0" />
		<edge from-layer="613" from-port="0" to-layer="614" to-port="1" />
		<edge from-layer="614" from-port="2" to-layer="619" to-port="0" />
		<edge from-layer="615" from-port="0" to-layer="619" to-port="1" />
		<edge from-layer="616" from-port="0" to-layer="619" to-port="2" />
		<edge from-layer="617" from-port="0" to-layer="619" to-port="3" />
		<edge from-layer="618" from-port="0" to-layer="619" to-port="4" />
		<edge from-layer="619" from-port="5" to-layer="624" to-port="0" />
		<edge from-layer="620" from-port="0" to-layer="621" to-port="0" />
		<edge from-layer="621" from-port="1" to-layer="623" to-port="0" />
		<edge from-layer="622" from-port="0" to-layer="623" to-port="1" />
		<edge from-layer="623" from-port="2" to-layer="624" to-port="1" />
		<edge from-layer="624" from-port="2" to-layer="626" to-port="0" />
		<edge from-layer="625" from-port="0" to-layer="626" to-port="1" />
		<edge from-layer="626" from-port="2" to-layer="627" to-port="0" />
		<edge from-layer="627" from-port="1" to-layer="628" to-port="0" />
	</edges>
	<rt_info>
		<MO_version value="2022.3.0-9052-9752fafe8eb-releases/2022/3" />
		<Runtime_version value="2022.3.0-9052-9752fafe8eb-releases/2022/3" />
		<conversion_parameters>
			<input_model value="DIR\model.onnx" />
			<input_shape value="[8],[8,1,1352,2040]" />
		</conversion_parameters>
		<legacy_frontend value="False" />
	</rt_info>
</net>
